parametric/Gamma/B2_parametric500.npy (npy, 44128 bytes, 1 tensors)

array (column-major) f8 [11, 500]
00000000: 43c2 a935 a2d6 e8be 4f2f 0f0e d94b dcbe
00000010: 5261 a8b2 dda3 d0be 15c7 97e9 965f cabe
00000020: bb6d 5898 f03e c8be e245 3b41 b2b0 c7be
00000030: db68 4a5f 208d c7be 261b 7f49 3e84 c7be
00000040: e69d 4df5 0582 c7be bb6f 82e3 7781 c7be
00000050: 9f6c 445f 5481 c7be 856e b894 f4a0 e13e
00000060: 6549 5386 9aea cb3e 7068 6e3d a61c c63e
00000070: 48be aa08 3f0a bf3e b97c 7d66 7e61 b93e
00000080: 58c9 d20a c7ab b73e 8293 ed8a 2c38 b73e
00000090: b91a c7f7 da1a b73e 66e8 d0bf 7f13 b73e
000000a0: 440a 0d84 a811 b73e 1a5b 3dae 3211 b73e
000000b0: 5652 5947 049d fdbe fccc 5e55 33ef 00bf
000000c0: f138 5df4 f94e 02bf 6792 3e30 fb79 02bf
000000d0: 5e74 b55d 6091 02bf c7af 1c87 6499 02bf
000000e0: e3c2 fa9b 819b 02bf 75c0 7e2d 0a9c 02bf
000000f0: c8f3 2264 2c9c 02bf 0657 e5f2 349c 02bf
00000100: e658 a716 379c 02bf 07b6 5764 a265 9f3e
00000110: fe55 64ee 35b9 e0be 87e6 72d7 87f5 ecbe
00000120: 9035 1176 a6e2 f2be 0630 2522 2b63 f4be
00000130: a704 2a33 e5c2 f4be 35fe f892 2cda f4be
00000140: 0d8b 4368 efdf f4be ce47 cb17 5fe1 f4be
00000150: eb2e f6f2 bae1 f4be d20a b4e8 d1e1 f4be
00000160: 7071 ed14 7f53 03bf ed5e 7594 b8e4 00bf
00000170: fe29 7864 2572 00bf a19f 3595 7b2f 00bf
00000180: fa60 2eda 4613 00bf 5fd7 0658 3b0b 00bf
00000190: a7f4 c10d 2809 00bf 6d8e 152e a208 00bf
000001a0: 6a44 2ca5 8008 00bf b341 e141 7808 00bf
000001b0: af72 fd28 7608 00bf b0a2 b70d 210c 123f
000001c0: 0de7 26ac 6f45 e5be 51ad d1df e090 f7be
000001d0: f626 c28e 25a4 f8be 748a e93f aace f8be
000001e0: 54f5 5930 56d8 f8be 0738 62a6 b5da f8be
000001f0: 184a abe3 4cdb f8be e2de 6ca9 72db f8be
00000200: 361a 461a 7cdb f8be fffd 7276 7edb f8be
00000210: bdf5 19d6 99ba db3e c225 d8d1 fab7 e2be
00000220: d091 9f6b 3858 f0be 98c1 fcaf 3dd4 f3be
00000230: 124b 6ea1 6f4a f5be 4aa5 204f 0dbc f5be
00000240: eecd 3c9c 19da f5be 9b50 df2d b9e1 f5be
00000250: efad e3e3 a2e3 f5be c56f a66e 1de4 f5be
00000260: c3db 2b13 3ce4 f5be b09e d139 4f34 863e
00000270: de16 54f1 cc6f 9b3e 5837 7559 dc93 bfbe
00000280: 7786 c645 f733 d1be 079b 714a 6a97 d4be
00000290: caaa ff98 d67c d5be 95f8 e039 71b6 d5be
000002a0: 68b2 5f19 d8c4 d5be 4c68 22c3 71c8 d5be
000002b0: 3518 682c 58c9 d5be 78ac a5c6 91c9 d5be
000002c0: a83d a484 3b12 e0be 46ab a181 41d5 d9be
000002d0: ea1c 8dc1 f727 8d3e 838d 2408 18c0 ca3e
000002e0: 9836 3d66 7266 d13e 01d0 7d73 2f7b d23e
000002f0: a15f 24a2 5fc1 d23e b4cd e752 f9d2 d23e
00000300: 2e27 8e8c 60d7 d23e 2ab9 9767 7ad8 d23e
00000310: dc3b 23df c0d8 d23e 10c1 6047 d868 f4be
00000320: 4f0a c2d0 9fb7 fcbe 287d 43f7 2b56 febe
00000330: c481 f157 4f63 febe a446 8abf bc78 febe
00000340: e05a f99a e280 febe 9bfc 2a99 2083 febe
00000350: 51dc 436f b383 febe 78e9 315a d883 febe
00000360: ba94 4398 e183 febe 5960 fde7 e383 febe
00000370: 6398 0dbb 141e d43e 96f9 7b0b 095c f63e
00000380: 59d4 9bbc 3c2e fd3e 9dbb 3898 13e0 fe3e
00000390: aac8 a291 ea25 ff3e c7d2 caa9 2830 ff3e
000003a0: 616d c9d4 0d32 ff3e 3bfd be30 7b32 ff3e
000003b0: 5555 00c3 9532 ff3e 07e9 2c5b 9c32 ff3e
000003c0: fa70 7100 9e32 ff3e 50bf 1529 a8aa 143f
000003d0: 73c8 c4ce 0c3d 183f 2cd7 69e9 6f72 1c3f
000003e0: de9b 3dc2 7112 1e3f f7fd e7b8 4d79 1e3f
000003f0: 178b 59a5 e691 1e3f 0356 cb3f fa97 1e3f
00000400: d8fe 6b20 7e99 1e3f 2729 1609 df99 1e3f
00000410: 4dbf 4c42 f799 1e3f ae35 8b50 fd99 1e3f
00000420: 07fe fbfb 6d53 00bf 1540 2cc0 cca2 fcbe
00000430: d2ef c930 8d7c fcbe 5f30 fefa d0ad fcbe
00000440: 4572 a6c7 3fb6 fcbe 38d5 fca0 86b6 fcbe
00000450: 3052 5fa4 65b6 fcbe 0f98 5daf 59b6 fcbe
00000460: b6b5 3b74 56b6 fcbe 07ae 8aa1 55b6 fcbe
00000470: d1b8 9f6c 55b6 fcbe eab0 d95a e4c0 f33e
00000480: 7173 5e62 fa2e e03e 0457 f829 0667 e93e
00000490: 519b 6728 ae2d f03e 5ae8 9920 f964 f13e
000004a0: b4ba d726 05b9 f13e c957 0e46 56ce f13e
000004b0: 17ca 299d aed3 f13e 5855 aeef 04d5 f13e
000004c0: 0156 0988 5ad5 f13e dc6a 5bee 6fd5 f13e
000004d0: 3969 2094 7156 fbbe fcf0 6a51 59b2 febe
000004e0: 1d47 9737 506d fdbe 4811 6fb2 2c71 fdbe
000004f0: 0e42 c7c2 e27c fdbe 898c 77ca 0e7f fdbe
00000500: 3b80 80ba 737f fdbe de59 b8e2 897f fdbe
00000510: d5c9 3f38 8f7f fdbe 887f 4b8a 907f fdbe
00000520: fbd2 98de 907f fdbe 241d 4b15 c500 f7be
00000530: 382e d34d e1f0 f7be 5a40 9bcc 7a55 f8be
00000540: b389 9fe5 705a f8be 51d5 04a2 fe43 f8be
00000550: cca2 3e55 f239 f8be a9ae d6dd 0e37 f8be
00000560: b6cf 4e81 4f36 f8be b3f3 5240 1f36 f8be
00000570: 9c98 6e29 1336 f8be 710c 4b23 1036 f8be
00000580: 9580 d36e c060 febe e867 87d1 e64e f6be
00000590: 48c5 856f 81cb f2be ef47 cf7e de5c f1be
000005a0: 42f5 98c6 75ef f0be 59f4 67dc dfd2 f0be
000005b0: fa41 f9b9 a6cb f0be 5d84 1c3d d7c9 f0be
000005c0: 7804 c94a 63c9 f0be c611 034d 46c9 f0be
000005d0: de86 7e0d 3fc9 f0be 4a6b c720 7dba f3be
000005e0: 4bf9 93b5 1f9a f6be 9f0e 8624 51fe f5be
000005f0: 89ab 438c cd65 f6be 0ea5 3c0a 9e94 f6be
00000600: a76a b8bc 9a9f f6be 4a01 f41f 1ea2 f6be
00000610: a5d7 fccb b9a2 f6be c265 425d e0a2 f6be
00000620: a2dc dafb e9a2 f6be 92f5 2463 eca2 f6be
00000630: 033e 7324 6286 f0be a6a2 a187 4b9f f1be
00000640: 3c01 d939 46e4 f2be d85a 65f9 35de f3be
00000650: 2ef5 0ae5 041c f4be c73b 02e0 8327 f4be
00000660: 76b8 f7a2 f029 f4be b51e b550 832a f4be
00000670: 07b0 b86d a72a f4be afc7 f86b b02a f4be
00000680: 5057 f8aa b22a f4be 82e4 9b73 10b3 e33e
00000690: 57d9 2001 2af5 d03e 0183 2f9a e3eb b13e
000006a0: e918 8dac 711f 9c3e d6cf d0c1 dd5a 903e
000006b0: 1040 e151 c73b 8a3e fa6b ad69 ba8f 883e
000006c0: 1150 34ee c723 883e 255f bef6 bb08 883e
000006d0: 72e2 b601 f801 883e 64cf fbf4 4600 883e
000006e0: 1d8e fa1b f96e c93e 7d74 b68a cd72 d53e
000006f0: a4dc 5c53 439f e93e aeeb 667b 7bab ef3e
00000700: ae9e 2877 6997 f03e 60d7 dd5e 5ec3 f03e
00000710: 0434 2c68 e2cd f03e 6671 4ed8 7ad0 f03e
00000720: d270 1467 20d1 f03e b939 e1c1 49d1 f03e
00000730: 3cde 0518 54d1 f03e 84ba 5762 1d91 06bf
00000740: a319 0a38 2393 03bf c508 731f 9bd5 01bf
00000750: b966 6f2f 5b67 01bf 58ce 350d 2e53 01bf
00000760: 00e1 f6c4 db4f 01bf b1e2 e810 3a4f 01bf
00000770: b9ab 6689 154f 01bf cd4e 6fa9 0c4f 01bf
00000780: 692b 9f75 0a4f 01bf 383b eee8 094f 01bf
00000790: b4ab bc01 4939 febe ca28 8e0c c1f0 f9be
000007a0: 5e76 c1f1 6cd9 f5be b7ed 637a e9d0 f3be
000007b0: bf2b fc7e 681b f3be 842b 438f 5fe6 f2be
000007c0: c0da 08f5 5cd8 f2be 97ea 7d65 ced4 f2be
000007d0: 6f5c 27da e9d3 f2be 625a b5a8 b0d3 f2be
000007e0: c37d 6e5b a2d3 f2be 599f c5fe 989b f1be
000007f0: 78b0 e546 8460 f8be b316 d965 e544 f6be
-1.1843878089141539e-05 -6.7463590491359415e-06 -3.967309377482806e-06 -3.1439538588023304e-06 -2.890331588968027e-06 -2.824094289845896e-06 -2.8075307859201535e-06 -2.803394249159709e-06
-2.802360464948994e-06 -2.802102042022038e-06 -2.80203743775532e-06 8.406034473876968e-06 3.327896637908187e-06 2.635945274898298e-06 1.8501296234311083e-06 1.5128156522698943e-06
1.410901897796836e-06 1.3839858572169989e-06 1.3771595766973786e-06 1.375446799358024e-06 1.3750182150251714e-06 1.3749110445348526e-06 -2.8241488016016808e-05 -3.229976088849927e-05
-3.4920695311956263e-05 -3.524110618905313e-05 -3.541541419836072e-05 -3.5475139965462534e-05 -3.5490887510097336e-05 -3.549486217424648e-05 -3.549585791649091e-05 -3.549610697699099e-05
-3.549616924984778e-05 4.6785189441911014e-07 -7.974376285117647e-06 -1.3808776868951045e-05 -1.8010475632037443e-05 -1.9442917740961095e-05 -1.9799527942958178e-05 -1.988624825188645e-05
-1.9907709899134744e-05 -1.9913060429761595e-05 -1.991439711228244e-05 -1.991473122321225e-05 -3.686172077863286e-05 -3.222168248367776e-05 -3.136803257682354e-05 -3.087135214735406e-05
-3.066120122880048e-05 -3.0601261645042973e-05 -3.0585799067653096e-05 -3.058190282947686e-05 -3.058092683806068e-05 -3.058068271910869e-05 -3.058062168179631e-05 6.884528868734518e-05
-1.0142915361710807e-05 -2.2474223431973476e-05 -2.3499677738437128e-05 -2.3658070853813847e-05 -2.3694100511386276e-05 -2.370294023328753e-05 -2.370514105616049e-05 -2.3705690718161118e-05
-2.3705828100096224e-05 -2.370586244348875e-05 6.611087287942125e-06 -8.925757863503524e-06 -1.558743563369482e-05 -1.8910471225543063e-05 -2.0304456565488237e-05 -2.072770889341894e-05
-2.083964660855129e-05 -2.0868045673542138e-05 -2.087517190656017e-05 -2.0876955127854613e-05 -2.0877401037257758e-05 1.6543517925297186e-07 4.088390011678146e-07 -1.882170499306837e-06
-4.101512868366644e-06 -4.909387974461364e-06 -5.123054862092144e-06 -5.17670278382515e-06 -5.190115549763391e-06 -5.193468540687774e-06 -5.194306771821564e-06 -5.194516328503524e-06
-7.663355195335436e-06 -6.159074496729313e-06 2.172300533015303e-07 3.188892209087046e-06 4.148526929826549e-06 4.406259726742052e-06 4.471627592893188e-06 4.488019199378109e-06
4.492120020746673e-06 4.493145405499904e-06 4.493401762852502e-06 -1.9464063790220843e-05 -2.7386934605031558e-05 -2.8931244245520047e-05 -2.8980187832041015e-05 -2.906001097586229e-05
-2.909036419248667e-05 -2.9098716889161378e-05 -2.9100853638799465e-05 -2.9101390861965723e-05 -2.910152535741805e-05 -2.910155899313346e-05 4.7963866770303765e-06 2.1323693288438627e-05
2.7828802365588042e-05 2.94449796582292e-05 2.9705152976241288e-05 2.9743309471102674e-05 2.975036959394545e-05 2.9751960979982157e-05 2.9752347643426564e-05 2.975244360501567e-05
2.975246755131196e-05 7.883693094412375e-05 9.246245071351123e-05 0.00010851676993603167 0.00011471576050113517 0.00011624848250590252 0.0001166150117000549 0.00011670555972938955
0.00011672813716856066 0.00011673377800583817 0.00011673518799848216 0.00011673554048315687 -3.113917727936779e-05 -2.7309357402194383e-05 -2.716687144975456e-05 -2.735039714667241e-05
-2.7381811813153326e-05 -2.7382842801422865e-05 -2.738236278061935e-05 -2.7382188782530732e-05 -2.7382141765499537e-05 -2.7382129789073016e-05 -2.738212678104411e-05 1.883839074994033e-05
7.716897993331855e-06 1.2112826254055953e-05 1.5428961455922586e-05 1.6588617688808066e-05 1.6901717051649292e-05 1.698112862732313e-05 1.7001040598827325e-05 1.7006022044426444e-05
1.7007267617627154e-05 1.700757902410142e-05 -2.6071234295079965e-05 -2.9274630913831722e-05 -2.806377913151032e-05 -2.8078163406567992e-05 -2.8121790977499567e-05 -2.8129882279414923e-05
-2.8131351115346015e-05 -2.8131673543619017e-05 -2.8131751164958897e-05 -2.8131770380634562e-05 -2.813177517265156e-05 -2.1937377215034155e-05 -2.2831857553735744e-05 -2.32066202333073e-05
-2.3225102587684596e-05 -2.314148343992201e-05 -2.3104051549846166e-05 -2.309329089704321e-05 -2.3090506221470657e-05 -2.3089804035636863e-05 -2.308962811139373e-05 -2.3089584106694394e-05
-2.8970657628302704e-05 -2.127476645506074e-05 -1.7924255162287268e-05 -1.6558427819841846e-05 -1.6150847306874558e-05 -1.604435763090761e-05 -1.60174491823945e-05 -1.601070454804555e-05
-1.600901730314629e-05 -1.6008595424181633e-05 -1.6008489950209276e-05 -1.881453685990555e-05 -2.1554991097788312e-05 -2.0974565161603812e-05 -2.136008039680838e-05 -2.1534477709615972e-05
-2.1575407840849572e-05 -2.1584770363071167e-05 -2.158703568896189e-05 -2.1587596919480643e-05 -2.1587736901831766e-05 -2.1587771876987296e-05 -1.575940612213827e-05 -1.6805883639755624e-05
-1.8016525805687427e-05 -1.8947611886000994e-05 -1.9177865683718872e-05 -1.9220691684081693e-05 -1.9229724953655614e-05 -1.9231859409245533e-05 -1.923238492744508e-05 -1.923251579522667e-05
-1.923254848009505e-05 9.393439188697684e-06 4.04302410755003e-06 1.0682011655148667e-06 4.1906279739759475e-07 2.437076903089442e-07 1.954548815596463e-07 1.829969747635069e-07
1.7985529785684427e-07 1.790681339846675e-07 1.788712332537269e-07 1.7882200119940052e-07 3.031908107535706e-06 5.1137086915206704e-06 1.221757939227762e-05 1.5101362674898658e-05
1.582284262205299e-05 1.598659394327158e-05 1.6025768228056944e-05 1.603543707383425e-05 1.603784625557674e-05 1.6038448045480153e-05 1.6038598461302756e-05 -4.304285929978161e-05
-3.7335884376199566e-05 -3.401641509405551e-05 -3.319499040062069e-05 -3.3044665225381755e-05 -3.301991875609596e-05 -3.301521256954732e-05 -3.301414942610083e-05 -3.301389113344114e-05
-3.301382703531955e-05 -3.3013811040585905e-05 -2.8823633427748233e-05 -2.4738736815112923e-05 -2.083713398836337e-05 -1.889806994713274e-05 -1.8221915467224932e-05 -1.8024345039429064e-05
-1.7972153104584996e-05 -1.7958902702267824e-05 -1.7955576945141398e-05 -1.7954744675330993e-05 -1.7954536555840063e-05 -1.679210974839195e-05 -2.3247736345253085e-05 -2.123749287920888e-05
