parametric/NF_MNIST/B1_parametric_ksdagg_100.npy (npy, 40128 bytes, 1 tensors)

array (column-major) f8 [10, 500]
00000000: f596 6625 d69e 593f 3fc4 fde1 42fb 6f3f
00000010: 2fff 71c9 fef5 833f 6feb 2bd1 b3ea 983f
00000020: b4b2 5c4f 671a af3f fa82 1912 a769 c33f
00000030: af48 82f8 833b d83f 0284 498d b83f ee3f
00000040: 7af5 b293 29e1 0240 848d 7fe2 1f91 1740
00000050: 04e4 e567 9912 693f 7d5f 60b9 344c 7f3f
00000060: e878 1f7d bc88 933f fedc 1c11 5162 a83f
00000070: d1b4 3ef1 2770 be3f fbc3 28f5 64ff d23f
00000080: 3121 4f20 e0b6 e73f 3ece aa22 269a fd3f
00000090: 630d 4c68 d279 1240 a235 a47d 1f10 2740
000000a0: a5ca 4fa5 cb67 723f a854 7f46 a3f9 863f
000000b0: f4b8 fc8f edad 9c3f 1153 649f 63e6 b13f
000000c0: df88 0f3e 1a58 c63f e78e 8e6a 49e4 db3f
000000d0: 944d a46d 8968 f13f 4cda b3dc 00bb 0540
000000e0: 1325 5e5a 2e20 1b40 8970 4fa2 21ee 3040
000000f0: af33 2541 4146 47bf 43dc 704a 910d 5dbf
00000100: 4f25 14e4 1422 72bf 31ee 7089 9da2 86bf
00000110: 74da aeb7 4c41 9cbf 446e 0304 97a2 b1bf
00000120: 118d 0f56 7803 c6bf d9b6 953c a47a dbbf
00000130: 5969 892c 9926 f1bf ddef 7e63 af68 05c0
00000140: 6d11 372b fdd9 403f b6a0 0464 1009 553f
00000150: 6af5 65ab 1042 6a3f 96a9 7112 8263 803f
00000160: 482e 48b4 2a75 943f fab0 4cb4 7289 a93f
00000170: bb5c 1705 90e0 bf3f a719 71f3 54e5 d33f
00000180: 78b6 5b6f e7d5 e83f 507a 8d74 7500 ff3f
00000190: 7d1b 9d49 8f80 37bf 33ff f126 5956 4dbf
000001a0: dc8d bfc6 814f 62bf 310b e7a2 51db 76bf
000001b0: e990 f4dd 1488 8cbf 6657 6085 c4ce a1bf
000001c0: 3529 c4c1 9d3a b6bf 9d53 19b3 7abf cbbf
000001d0: e269 b1f5 8f51 e1bf d813 6437 509e f5bf
000001e0: 4a2c f477 013b 6d3f a23b ddfe 703e 823f
000001f0: fd18 432d 04c6 963f 983a f06c 7d6d ac3f
00000200: ab87 3dba 2bbe c13f 1f8c ef15 e625 d63f
00000210: e873 8d51 9ea5 eb3f 4732 6e3d 6c41 0140
00000220: af92 ab30 2d8a 1540 ead4 e50b 38e3 2a40
00000230: b7e1 aa1b b6fd 453f 7dab 1310 7473 5b3f
00000240: 75f5 88f0 1c22 713f 7e54 6456 1863 853f
00000250: 68bd e1f2 72b2 9a3f 2389 abbe a6a9 b03f
00000260: a82c f6a1 b9cc c43f 19b6 59a8 bef6 d93f
00000270: 0760 2cdb 7e34 f03f 38aa 3825 773a 0440
00000280: b1a6 3b4a 61b3 4f3f eb70 089f 21c9 633f
00000290: ee52 bd1e b3b2 783f c8a9 ec1a 7fd4 8e3f
000002a0: 154b d156 053e a33f 3cd8 cc08 0d05 b83f
000002b0: 066c 27f4 bbfb cd3f e619 3200 bbb6 e23f
000002c0: a750 cce2 2a5c f73f 3b78 f352 e528 0d40
000002d0: a5d3 3c20 6041 643f c0e9 474a cc48 793f
000002e0: fe92 3e75 dc8f 8f3f f8e7 586c f6b2 a33f
000002f0: 36d2 eae2 0697 b83f 29c8 cbff f3b1 ce3f
00000300: dad7 22ff 7528 e33f bae0 4149 23ea f73f
00000310: d654 c51b 23da 0d40 f688 7ddf c0a1 2240
00000320: f3a3 2ace e2ca 5bbf 25ed 2be6 ae58 71bf
00000330: 5595 78c0 36a7 85bf 8a01 f9f6 7a07 9bbf
00000340: 65ee f507 b9de b0bf 6aeb b121 f90e c5bf
00000350: e860 58fa 7049 dabf 7cb1 e094 1c68 f0bf
00000360: 2cb0 135b e97a 04c0 cb9d 5ded 9a90 19c0
00000370: eb94 4ae8 cba9 44bf f623 7f06 25cb 59bf
00000380: 6a5c bafb 4819 70bf 6f79 b508 8418 84bf
00000390: 9396 db2b cb15 99bf 0ef4 6485 3150 afbf
000003a0: 1f31 e898 398b c3bf c92a 7944 6c65 d8bf
000003b0: b432 22e2 0774 eebf ba88 7060 cd01 03c0
000003c0: 6a28 f8f7 3d44 1abf 973b 8fe7 dd64 30bf
000003d0: 3809 62e5 dc76 44bf f3b4 b7b1 908b 59bf
000003e0: b69a 898d 34e3 6fbf 54c1 e81d fbe6 83bf
000003f0: fd67 b4c0 f5d7 98bf 2522 5c49 0103 afbf
00000400: 30ca 53be 095b c3bf d8a4 2f9f 3029 d8bf
00000410: e405 719c 911a 5e3f 4ac3 e4d9 f9c9 723f
00000420: 149d 03ca 3174 873f 5011 a7b9 e946 9d3f
00000430: 68dd 8f88 df45 b23f 431e df12 4bcf c63f
00000440: b98d a6f1 1179 dc3f 8165 a4ef 65c5 f13f
00000450: c79c e927 eb2e 0640 44b4 a5bc dcb0 1b40
00000460: 8230 f4b7 c574 453f 5439 cfe3 83c8 5a3f
00000470: 2ceb d179 6cb7 703f f26e 9cbf eadd 843f
00000480: e299 bf9e 340c 9a3f 8656 7966 e441 b03f
00000490: 9a1d c867 344b c43f ec42 1232 1155 d93f
000004a0: a4d9 294b 2c9f ef3f 7db7 347a 81bc 0340
000004b0: 5eff d90c f25b 3ebf 35ea 6aba c7f2 52bf
000004c0: 5d54 d729 21a7 67bf 8449 4982 7e86 7dbf
000004d0: 3668 4f85 8e6d 92bf 1a06 3c53 d400 a7bf
000004e0: 8da8 1aa8 e7b6 bcbf ebe1 17c2 fdeb d1bf
000004f0: bc0a 95ea 165f e6bf 1164 c74a f6ec fbbf
00000500: 05d9 783d 11b7 4f3f 1ac0 2dc7 6ecb 633f
00000510: a92d 6e8d 92b5 783f c37c 5d21 15d8 8e3f
00000520: 9b67 a650 4240 a33f 5bf6 8a44 d807 b83f
00000530: a315 61c2 38ff cd3f 47a6 e536 e8b8 e23f
00000540: f9d5 6246 e25e f73f 12e2 bf0b 482c 0d40
00000550: 599d 228a ecf9 5cbf bd98 543f d215 72bf
00000560: da8e e9a1 4f93 86bf 4479 f713 322e 9cbf
00000570: 2b9e 0493 aa96 b1bf 4692 960b 96f4 c5bf
00000580: c7f7 efff 0f68 dbbf 43e7 f3e4 001b f1bf
00000590: 6792 f04c 385a 05c0 f10e 3cf1 5da7 1ac0
000005a0: 5cd8 4fa8 b6f3 26bf 4832 3e66 88a6 3cbf
000005b0: 3733 3a06 c6e1 51bf 3a51 1b47 5752 66bf
000005c0: d71c 1440 18dd 7bbf 0266 cb4a 0c64 91bf
000005d0: 617e ac7c 66b5 a5bf 6612 7961 3019 bbbf
000005e0: f0c3 957f c6e9 d0bf c9b8 5cf5 c41c e5bf
000005f0: 2509 fb92 9906 663f a8d1 007b 8c7e 7b3f
00000600: dfaf d7c1 0929 913f dff5 344f bd6b a53f
00000610: db77 445b 3dbd ba3f 1046 cadf 62b0 d03f
00000620: 00bb b4d5 21d5 e43f 3642 8a42 3d01 fa3f
00000630: 85c9 26e0 0b3b 1040 22e3 641f a642 2440
00000640: 2709 8707 ad3b 4d3f c703 d112 dc3e 623f
00000650: 95c4 0ad7 89c6 763f 69b1 4d46 246e 8c3f
00000660: 76c4 64dd 93be a13f 8436 5a14 6826 b63f
00000670: 5123 fa98 40a6 cb3f 2619 ad90 d141 e13f
00000680: cca2 91fc ab8a f53f 1d41 ffc4 d8e3 0a40
00000690: 4093 9a29 9a94 533f 28fe ceee 2071 683f
000006a0: c5f7 6940 a582 7e3f 01de db34 ef0a 933f
000006b0: 5924 67df 47c5 a73f 832d 789d 21ac bd3f
000006c0: e22f 022c 0c85 d23f 23e0 9707 271e e73f
000006d0: 70de 4c05 82db fc3f aa3e c1c7 d502 1240
000006e0: 8c08 cc5f 8f66 603f 99e4 c5fc f978 743f
000006f0: 81f8 ba20 348e 893f 8674 8eaf 7fe6 9f3f
00000700: c53b 635c 09e9 b33f ddaa 87bd 86da c83f
00000710: 603c 2513 3606 df3f 50da edb0 0c5d f33f
00000720: 96e6 d31f c82b 0840 2521 3462 112c 1e40
00000730: 82b2 141c d4fb 5d3f e26c b42e cab6 723f
00000740: 86ae 56a7 3e5c 873f 835a b25a 0429 9d3f
00000750: 63ca 86c2 3633 b23f 5198 3a52 00b8 c63f
00000760: 0284 54bb fe5b dc3f be7c 9a36 40b3 f13f
00000770: 0e98 7613 4318 0640 c11c cf76 8d94 1b40
00000780: 593c c0d0 4a6a 333f 6120 5862 503c 483f
00000790: 7fa8 e1d3 b740 5e3f b358 d255 c9e1 723f
000007a0: 1084 4fa8 ea91 873f dd5f 10b9 036c 9d3f
000007b0: a116 b89f 075d b23f b6df aa15 33ec c63f
000007c0: a138 20fb 279d dc3f 82e8 fcb2 eedb f13f
000007d0: ba5f 4a67 b09c 533f e081 172c 397b 683f
000007e0: 0820 ce1a 3f8f 7e3f 15df f296 cc12 933f
000007f0: 41be 3923 19cf a73f 1638 3ddf 62b8 bd3f
0.0015637484808421174 0.003903990393091777 0.00974654247534054 0.024332818643397255 0.060748318135983054 0.15166176208278853 0.37863253849458095 0.9452784308924722
2.3599425829876823 5.891723193202214 0.003060626622013009 0.007641035035724883 0.019076295029543028 0.04762509664436186 0.11889886512536242 0.29683803502399514
0.7410736685788263 1.8501340250194427 4.618966703073371 11.53149025563727 0.00449351834412207 0.011218333805951566 0.028007232583314015 0.06992170945552469
0.1745636752157855 0.4358085194200911 1.088021686828914 2.7163102381121345 6.781426822658676 16.930200714487487 -0.0007102793336258762 -0.001773254285365914
-0.004427034001545606 -0.011052351719732819 -0.02759284850227535 -0.06888717506392888 -0.17198089792427898 -0.4293604461334844 -1.071923421832784 -2.676115777312573
0.0005142675567460349 0.0012838993134867533 0.003205330426850385 0.00800229662691691 0.01997820592263924 0.04987677050516655 0.1245203030042487 0.3108723046647363
0.7761113333669547 1.9376120140874669 -0.00035861490470206326 -0.0008953032792220261 -0.0022351774878062013 -0.005580252544350726 -0.01393142988542491 -0.03478063705567429
-0.08683191280957632 -0.21678098435463947 -0.5412063406650385 -1.3511507190425984 0.003568175190257904 0.00890815999778544 0.022239747297839497 0.05552284197630292
0.13861605256812246 0.3460631574836856 0.8639670937369575 2.1569447325948974 5.384938011619552 13.443786975675227 0.0006711138915625391 0.0016754754472525217
0.004182923360131032 0.010442915092918389 0.026071353983238593 0.06508867411642831 0.16249771507532285 0.4056851047560897 1.0128162919481853 2.528547564307953
0.0009674286888785214 0.0024152428307059235 0.006029796302603014 0.015053742417497143 0.037582556579442684 0.09382707085464487 0.23424481793958324 0.5848059657881179
1.4600018367100718 3.6449686508704224 0.0024725797137769728 0.006172941215931649 0.015411112144485536 0.038474751211154457 0.0960544876096002 0.23980569829979118
0.5986890776755402 1.4946625577559147 3.731512276610924 9.31592462928209 -0.00169632100065997 -0.004234965514793109 -0.010572841404676106 -0.02639572269822702
-0.0658984798846461 -0.16451944489730447 -0.4107325024392723 -1.0254178824935414 -2.560015403307281 -6.3912160004033 -0.000630592884210882 -0.0015743123603775256
-0.003930363741935764 -0.009812385097288183 -0.024497198631158467 -0.06115870240544306 -0.15268630949174963 -0.3811903637585315 -0.9516639153167348 -2.375880006250637
-0.00010019901491645366 -0.0002501527556519277 -0.0006245211213953611 -0.0015591538457287418 -0.0038925196097808435 -0.009717904901748987 -0.024261321913492385 -0.06056980152613204
-0.1512157611210383 -0.3775140337516638 0.0018373891814608074 0.00458715055565124 0.011452092149240069 0.028590824085555966 0.07137868007690928 0.17820108815634414
0.4448895320767537 1.1106929169676223 2.7729094618003702 6.922717044461994 0.0006547894880966217 0.0016347206103436056 0.0040811765039688135 0.010188898060327276
0.025437185467945052 0.0635054350071532 0.15854506556955245 0.3958170880296581 0.9881803005253471 2.467043833478725 -0.000463244051253744 -0.0011565161200183364
-0.0028873107646441424 -0.007208341765890917 -0.01799605072651663 -0.04492820278211358 -0.11216590742211192 -0.28002876238272617 -0.6991076070483682 -1.7453520699548373
0.0009678682499217056 0.0024163402207975195 0.0060325360017360686 0.015060582237934722 0.037599632592175435 0.09386970208557825 0.2343512486569753 0.5850716659744614
1.4606650113540793 3.646621791642482 -0.0017685708958568773 -0.0044153416431866295 -0.01102316105715977 -0.027519972294493003 -0.06870523537929134 -0.17152667585209452
-0.4282264708889411 -1.0690926497904492 -2.669052697269126 -6.663444299021408 -0.0001751099081556709 -0.0004371722227396774 -0.0010914262610725708 -0.002724810089470034
-0.006802649238358791 -0.01698321539411119 -0.04239959976098074 -0.10585310344419838 -0.26426851710772237 -0.6597618858557094 0.002688693952081727 0.006712483169441098
0.01675811048146147 0.041837612074669066 0.10445006826600382 0.26076576094155346 0.6510171102471247 1.6253025626393884 4.057662489287741 10.130173665109002
0.0008921236868036129 0.0022272394476492183 0.005560434758693185 0.013881953616611669 0.034657116675938335 0.08652353760609272 0.2160111185987952 0.5392844987589214
1.3463554254505423 3.361253298797364 0.0011950974934872988 0.00298363144108273 0.007448812021378208 0.01859639892697196 0.04642700769506609 0.1159077653357397
0.2893705777903489 0.7224307201677259 1.803590794281174 4.502768632096982 0.0020020294454080097 0.004998184693584617 0.0124782631386291 0.031152720537296584
0.07777460580403701 0.19416889433281073 0.4847541033713636 1.210217181329103 3.021377800611684 7.543035063201647 0.0018300601371478435 0.0045688531638703195
0.011406411630410018 0.028476779971777787 0.07109396218474155 0.17749027266580922 0.4431149320026294 1.1062624104450118 2.7618466873709684 6.895070892706998
0.0002962525038591783 0.0007396118641631693 0.0018464846794139787 0.004609858003411005 0.011508782636100917 0.028732355280311473 0.07173202180282569 0.17908323820097188
0.44709205173502126 1.116194438144277 0.0011970255556317103 0.002988444962042744 0.0074608292606015494 0.018626400674036498 0.046501908826823264 0.11609476041959996
