parametric/NF_MNIST/B1_parametric400.npy (npy, 84128 bytes, 1 tensors)

array (column-major) f8 [21, 500]
000000 9b 27 e3 a7 ef 1f 44 bf fe f1 e2 a7 ef 1f 54 bf
       -0.0006141586489090024 -0.0012283172978150288
000010 a1 1b e2 a7 ef 1f 64 bf 28 c2 de a7 ef 1f 74 bf
       -0.0024566345956062584 -0.00491326919102212
000020 47 5c d1 a7 ef 1f 84 bf b6 c4 9b a7 ef 1f 94 bf
       -0.009826538380521067 -0.01965307674885671
000030 8f 66 c5 a6 ef 1f a4 bf e2 ed 6b a3 ef 1f b4 bf
       -0.03930615340023024 -0.0786123060205948
000040 50 0b 06 96 ef 1f c4 bf 16 83 6e 60 ef 1f d4 bf
       -0.15722460580226505 -0.31444916169316295
000050 4f 82 10 8a ee 1f e4 bf 68 84 9a 30 eb 1f f4 bf
       -0.6288979240963019 -1.2577926539018112
000060 a4 da e2 ca dd 1f 04 c0 a5 e1 08 36 a8 1f 14 c0
       -2.5155597544174544 -5.030915111820296
000070 22 6f df 02 d2 1e 24 c0 48 e9 0b 37 7b 1b 34 c0
       -10.060196008467361 -20.107348862083455
000080 7b fa b8 56 3f 0e 44 c0 07 8a 43 3b 1b db 53 c0
       -40.111307945558075 -79.42353707881567
000090 e4 e6 04 2f 7a 24 63 c0 64 b3 5a 6b 92 08 71 c0
       -153.13991499860197 -272.53574691228846
0000a0 40 50 26 c2 5c 77 79 c0 0d 53 b1 44 b7 cf 3d bf
       -407.4601460930462 -0.0004548857147644171
0000b0 df 1b b1 44 b7 cf 4d bf 26 3f b0 44 b7 cf 5d bf
       -0.0009097714295273027 -0.0018195428590423528
0000c0 32 cc ac 44 b7 cf 6d bf 70 00 9f 44 b7 cf 7d bf
       -0.003639085717986678 -0.0072781714351891486
0000d0 54 d1 67 44 b7 cf 8d bf 1d 15 8b 43 b7 cf 9d bf
       -0.0145563428641046 -0.029112685678019824
0000e0 02 24 18 40 b7 cf ad bf ad 5f 4c 32 b7 cf bd bf
       -0.058225370954524194 -0.11645073869692509
0000f0 57 4f 1d fb b6 cf cd bf ee 1a 61 1e b6 cf dd bf
       -0.2329014516968708 -0.46580269781809036
000100 0f 1c 71 ab b2 cf ed bf 61 48 be df a4 cf fd bf
       -0.9316037510369614 -1.8631943454716053
000110 d6 73 c5 b1 6d cf 0d c0 fe fc 07 07 91 ce 1d c0
       -3.726283444250366 -7.451725110876621
000120 86 04 ff 2d 1f cb 2d c0 1c 42 f8 cc 64 bd 3d c0
       -14.89672225702294 -29.73981934605591
000130 33 fb 2c 07 45 87 4d c0 45 9d ad 09 1d ba 5c c0
       -59.05679406830168 -114.90802232698941
000140 2a 14 74 b0 7e 0e 6a c0 2e 31 1d 8b 17 d3 73 c0
       -208.4529649989284 -317.19324790385406
000150 1c 49 4f 88 5a 72 31 bf 7b 0c 4f 88 5a 72 41 bf
       -0.0002662154222977818 -0.0005324308445938808
000160 ed 19 4e 88 5a 72 51 bf 94 4f 4a 88 5a 72 61 bf
       -0.0010648616891742971 -0.002129723378240864
000170 56 26 3b 88 5a 72 71 bf 36 81 fe 87 5a 72 81 bf
       -0.004259446755619919 -0.008518893504345298
000180 7b ec 0b 87 5a 72 91 bf 06 9a 41 83 5a 72 a1 bf
       -0.017037786953534067 -0.03407557346581673
000190 13 50 18 74 5a 72 b1 bf cc 2a 73 37 5a 72 c1 bf
       -0.0681511434016218 -0.13630225856316824
0001a0 91 bb de 44 59 72 d1 bf 61 5e 8f 7a 55 72 e1 bf
       -0.2726042912062719 -0.5452067750692998
0001b0 12 e4 77 51 46 72 f1 bf c0 76 79 af 09 72 01 c0
       -1.0903990919453048 -2.1806825360243636
0001c0 c4 1f 6d 4d 17 71 11 c0 20 42 7d 21 50 6d 21 c0
       -4.360440454278379 -8.713501974621124
0001d0 68 12 55 94 58 5e 31 c0 58 b7 b7 6d a7 24 41 c0
       -17.368539114732272 -34.28635951490895
0001e0 87 e7 f2 73 c4 59 50 c0 22 86 96 de 55 46 5c c0
       -65.40261553498395 -113.09899105739217
0001f0 b9 ab 32 0f 84 c3 64 c0 17 b7 c6 0f 49 7f 2f bf
       -166.10987052818908 -0.00024030463090468003
000200 cd 4f c6 0f 49 7f 3f bf 57 b2 c4 0f 49 7f 4f bf
       -0.00048060926180792664 -0.0009612185236043774
000210 98 3c be 0f 49 7f 5f bf 0d 65 a4 0f 49 7f 6f bf
       -0.0019224370471169535 -0.003844874093499434
000220 22 07 3d 0f 49 7f 7f bf a8 8f 9f 0d 49 7f 8f bf
       -0.007689748181123142 -0.015379496315240562
000230 c3 b1 29 07 49 7f 9f bf 42 3a 52 ed 48 7f af bf
       -0.030758992254435357 -0.061517981500504706
000240 13 5f f4 85 48 7f bf bf 00 23 7d e8 46 7f cf bf
       -0.12303593893409141 -0.24607168533318458
000250 9d 34 a3 72 40 7f df bf a4 9c 6b 9b 26 7f ef bf
       -0.49214183039732423 -0.9842713389924893
000260 ed 35 8f 41 bf 7e ff bf d8 6f 34 0a 22 7d 0f c0
       -1.9684441147722922 -3.936100082135436
000270 34 3c 09 2c b0 76 1f c0 ff 80 17 1e 18 5d 2f c0
       -7.8659064179074 -15.681824627274635
000280 91 75 20 34 8e f9 3e c0 04 90 b1 80 3b 92 4d c0
       -30.97482610504591 -59.14244087858245
000290 de 35 f7 35 88 9a 5a c0 e0 6f de 49 0c 13 64 c0
       -106.41456364766734 -160.59525006718377
0002a0 e2 21 e9 ca 61 cc 2c bf 7d 1d e9 ca 61 cc 3c bf
       -0.0002197141052013982 -0.0004394282104027354
0002b0 27 0c e9 ca 61 cc 4c bf 76 c6 e8 ca 61 cc 5c bf
       -0.0008788564208049896 -0.0017577128416061106
0002c0 a9 af e7 ca 61 cc 6c bf 71 54 e3 ca 61 cc 7c bf
       -0.003515425683181268 -0.007030851366114908
0002d0 d3 e7 d1 ca 61 cc 8c bf c9 34 8c ca 61 cc 9c bf
       -0.014061702730248904 -0.028123405444650005
0002e0 c4 68 75 c9 61 cc ac bf 05 34 1a c5 61 cc bc bf
       -0.056246810762517835 -0.11249362051076169
0002f0 38 1f ad b3 61 cc cc bf c5 ab f4 6d 61 cc dc bf
       -0.22498723290686384 -0.4499744008814413
000300 2c d5 d0 56 60 cc ec bf 6b 6c 21 f6 5b cc fc bf
       -0.8999482818241282 -1.7998923887705824
000310 1a dc 82 31 4a cc 0c c0 fc 99 e6 08 ff cb 1c c0
       -3.599750887685798 -7.199215067934798
000320 61 b9 85 f0 92 ca 2c c0 47 65 28 f2 58 c1 3c c0
       -14.395652309726474 -28.755263457166873
000330 c9 03 09 a2 7f 76 4c c0 d1 ac 90 6a be 7d 59 c0
       -56.92577004852462 -101.96474708679604
000340 ed bd 06 a2 b7 f8 61 c0 2c 52 b8 3c d1 55 2a bf
       -143.7724161273649 -0.00020092181362997682
000350 fb db b7 3c d1 55 3a bf 46 03 b6 3c d1 55 4a bf
       -0.0004018436272583134 -0.0008036872545035066
000360 d0 9f ae 3c d1 55 5a bf 6a 12 91 3c d1 55 6a bf
       -0.001607374508902016 -0.003214749016964104
000370 d7 dc 1a 3c d1 55 7a bf d4 06 42 3a d1 55 8a bf
       -0.006429498027208789 -0.01285899600066235
000380 58 ae de 32 d1 55 9a bf 61 4d 51 15 d1 55 aa bf
       -0.02571799157128249 -0.051435979702229025
000390 c1 d2 1b 9f d0 55 ba bf f0 7a 46 c6 ce 55 ca bf
       -0.10287193188180323 -0.20574364358341013
0003a0 83 4b fa 62 c7 55 da bf 61 86 5c d6 a9 55 ea bf
       -0.4114855257586713 -0.8229569613215056
0003b0 00 02 14 ad 33 55 fa bf a4 c4 9a 9a 5b 53 0a c0
       -1.6458012352815103 -3.290702064369343
0003c0 d1 33 59 6b 04 4c 1a c0 80 c5 bf 7c 35 2f 2a c0
       -6.574235608405574 -13.092204950723271
0003d0 27 d2 8e cc fa c3 39 c0 81 fe a6 6f f7 71 48 c0
       -25.765545639866243 -48.89036365179073
0003e0 53 21 f5 77 28 80 55 c0 27 a1 7e 5e 4f e0 60 c0
       -86.00247000635618 -135.0096886132462
0003f0 36 b3 81 16 68 fe f4 be 3e 61 82 16 68 fe 04 bf
       -2.0021224742472486e-05 -4.004244948524687e-05
000400 b8 1e 85 16 68 fe 14 bf 6d 12 90 16 68 fe 24 bf
       -8.008489897292747e-05 -0.00016016979796530957
000410 7d e3 bb 16 68 fe 34 bf 79 27 6b 17 68 fe 44 bf
       -0.00032033959608628715 -0.000640679193417911
000420 83 36 28 1a 68 fe 54 bf 28 74 1c 25 68 fe 64 bf
       -0.001281358396798466 -0.0025627168732982493
000430 d0 69 ed 50 68 fe 74 bf 00 1d 31 00 69 fe 84 bf
       -0.005125434384206831 -0.010250873869280586
000440 35 03 3e bd 6b fe 94 bf 6e fa 52 b1 76 fe a4 bf
       -0.02050178854506442 -0.04100390352822535
000450 7d 1e bd 7f a2 fe b4 bf 55 ab ce 9a 51 ff c4 bf
       -0.08201041811582317 -0.16404171046209606
000460 ba eb d3 1e 0c 02 d5 bf 43 23 c9 f5 d7 0c e5 bf
       -0.32824996004608986 -0.6578178215505449
000470 a3 50 b0 aa 35 36 f5 bf 85 41 44 59 5e c2 05 c0
       -1.325734774353841 -2.7199065183596667
000480 89 a5 2f a9 96 ee 16 c0 1e d9 7e 69 ee 10 26 c0
       -5.732996600659484 -11.033068939909352
000490 0f cd c4 4f d7 5a 27 c0 b4 61 c7 82 03 18 e9 3e
       -11.67742394711834 1.1965657983490547e-05
0004a0 81 9f c7 82 03 18 f9 3e 51 97 c8 82 03 18 09 3f
       2.3931315967034697e-05 4.786263193449928e-05
0004b0 b2 73 cc 82 03 18 19 3f 1c e9 db 82 03 18 29 3f
       9.572526387242769e-05 0.00019145052777231545
0004c0 6c b9 19 83 03 18 39 3f 29 05 11 84 03 18 49 3f
       0.00038290105576423736 0.0007658021132856174
0004d0 63 20 ee 87 03 18 59 3f dc 9a 62 97 03 18 69 3f
       0.0015316042406272816 0.003063208593704443
0004e0 b4 7b 34 d5 03 18 79 3f 35 e6 7a cc 04 18 89 3f
       0.006126418087005914 0.012252843370663328
0004f0 be 8d 83 a9 08 18 99 3f 70 03 96 1c 18 18 a9 3f
       0.02450574431067109 0.049011949052334525
000500 07 ad de d7 55 18 b9 3f 80 80 37 b5 4b 19 c9 3f
       0.09802757759341683 0.19608446453549178
000510 5d 92 2f 40 12 1d d9 3f 6b ed 3b 41 22 2b e9 3f
       0.39239937084338355 0.7865153574088429
000520 a6 e9 90 ba ce 53 f9 3f 5c 71 89 32 35 34 09 40
       1.5829608237969324 3.150492091006681
000530 e7 78 e7 32 9e 96 13 40 b9 75 53 f8 76 9e ef bf
       4.897087855699488 -0.9880938387029153
000540 46 21 a9 3a 65 29 06 3f b9 85 a9 3a 65 29 16 3f
       4.227008988217039e-05 8.454017976468929e-05
000550 7b 15 ab 3a 65 29 26 3f 76 54 b1 3a 65 29 36 3f
       0.00016908035953215245 0.0003381607190864952
000560 1d 51 ca 3a 65 29 46 3f e8 43 2e 3b 65 29 56 3f
       0.0006763214383505332 0.0013526428781214187
000570 e2 0d be 3c 65 29 66 3f 00 37 fd 42 65 29 76 3f
       0.0027052857676055234 0.005410571626112803
000580 4d db f9 5b 65 29 86 3f 3f 64 ec bf 65 29 96 3f
       0.010821143979439585 0.021642293776583662
000590 75 18 b6 4f 67 29 a6 3f bc ca d5 8e 6d 29 b6 3f
       0.04328463409460507 0.08656964051423705
0005a0 2b d5 e2 8a 86 29 c6 3f 13 8c fb 73 ea 29 d6 3f
       0.1731422594217887 0.3463083393709791
0005b0 07 a0 c3 a6 79 2b e6 3f e4 a3 4f 5f af 31 f6 3f
       0.6928070313560973 1.3871301386918669
0005c0 a8 48 31 d6 16 4a 06 40 46 a0 8e 06 26 a5 16 40
       2.7861763700285174 5.661277868704991
0005d0 7b b1 5d d7 df bc 27 40 f0 73 bf 0a 0b af 30 40
       11.868895273387116 16.683762237302233
0005e0 96 51 28 f8 23 6a 1f 40 7f 60 2b 4e ae bb 0d 3f
       7.85365283723913 5.67114418765233e-05
0005f0 ab 82 2a 4e ae bb 1d 3f 18 0a 27 4e ae bb 2d 3f
       0.00011342288375227698 0.00022684576749838824
000600 93 27 19 4e ae bb 3d 3f 26 9f e1 4d ae bb 4d 3f
       0.0004536915349474476 0.0009073830695003101
000610 71 7e 03 4d ae bb 5d 3f b8 fa 8a 49 ae bb 6d 3f
       0.001814766135843995 0.0036295322464348877
000620 62 ea a8 3b ae bb 7d 3f 48 a9 20 04 ae bb 8d 3f
       0.007259064290844637 0.014518126965488279
000630 c8 ab ff 25 ad bb 9d 3f de 00 7c ad a9 bb ad 3f
       0.029036241001374724 0.05807237856606816
000640 32 21 72 cb 9b bb bd 3f b2 50 97 43 64 bb cd 3f
       0.11614392964304868 0.2322812395128771
000650 f2 cf f6 28 86 ba dd 3f 40 b9 1e 0b 0e b7 ed 3f
       0.46450952530290046 0.9285955636203553
000660 12 65 c5 5d 32 a9 fd 3f 77 e6 b0 21 10 72 0d 40
       1.8538077986652906 3.6806948310957597
000670 76 a4 08 ea 43 9a 1c 40 99 49 9d 88 6d 83 29 40
       7.150649697091572 12.756695050430425
000680 8b 5a c3 ef 6e 60 39 40 e2 6d b9 e7 32 7e 3e 40
       25.3766927577913 30.492964251299675
000690 da 40 c6 24 d3 68 11 3f 6d 4f c7 24 d3 68 21 3f
       6.641186445777454e-05 0.00013282372891742657
0006a0 fc 8b cb 24 d3 68 31 3f 59 7b dc 24 d3 68 41 3f
       0.0002656474578499044 0.0005312949158201393
0006b0 a0 3a 20 25 d3 68 51 3f d5 36 2f 26 d3 68 61 3f
       0.001062589832603024 0.00212517967290791
0006c0 d3 27 6b 2a d3 68 71 3f eb ea 5a 3b d3 68 81 3f
       0.004250359407430754 0.008500719307780588
0006d0 b9 f7 19 7f d3 68 91 3f a6 1c 16 8e d4 68 a1 3f
       0.0170014425589142 0.03400291666462722
0006e0 38 d0 05 ca d8 68 b1 3f 4f 8f b6 b9 e9 68 c1 3f
       0.06800608570284872 0.13601419036887782
0006f0 09 a9 98 77 2d 69 d1 3f 32 d1 13 61 3c 6a e1 3f
       0.27204453162507086 0.5442182441752605
000700 f1 70 6b 26 77 6e f1 3f b8 eb 17 42 54 7f 01 40
       1.0894690991181586 2.187172428469662
000710 15 4d 16 e5 ec c1 11 40 23 fb 1d 1d 71 bf 22 40
       4.439380244718696 9.373909864339629
000720 5c f4 06 02 92 10 36 40 b3 dd e1 68 32 a9 40 40
       22.064727904031642 33.32185088184942
000730 41 34 be 13 39 3b 46 40 eb 97 0a 1a 3e 0f 19 3f
       44.46267935550032 9.559456385463377e-05
000740 25 5a 0a 1a 3e 0f 29 3f 2b 63 09 1a 3e 0f 39 3f
       0.0001911891277088389 0.0003823782554142503
000750 03 87 05 1a 3e 0f 49 3f 02 17 f6 19 3e 0f 59 3f
       0.0007647565108010738 0.0015295130213827672
000760 99 56 b8 19 3e 0f 69 3f 5f 54 c1 18 3e 0f 79 3f
       0.0030590260410104484 0.006118052067980078
000770 1d 4c e5 14 3e 0f 89 3f dc 2a 75 05 3e 0f 99 3f
       0.012236104023633893 0.024472207148657485
000780 e2 a9 b4 c7 3d 0f a9 3f 42 e3 b2 d0 3c 0f b9 3f
       0.04894440710843974 0.09788875670609534
000790 5a 99 af f4 38 0f c9 3f 77 7c df 84 29 0f d9 3f
       0.19577705333285672 0.39155042625311104
0007a0 25 4a 6f c9 eb 0e e9 3f 0b c6 97 18 f5 0d f9 3f
       0.7830714163085913 1.5659075699480833
0007b0 f6 e0 29 1d 1e 0a 09 40 07 e4 3a 14 fd fa 18 40
       3.129940250244654 6.245106044859319
0007c0 3d 16 9c 75 cd c1 28 40 75 f5 80 ab 6a 02 37 40
       12.378520655921529 23.009440154060446
0007d0 5f 54 49 91 c7 4a 43 40 07 03 95 2f c0 6c 47 40
       38.584215317540604 46.84961504722565
0007e0 ed b2 9a 9c 37 92 1b 3f a4 e3 9a 9c 37 92 2b 3f
       0.00010517563273522062 0.00021035126547077926
0007f0 89 a5 9b 9c 37 92 3b 3f d8 ad 9e 9c 37 92 4b 3f
       0.00042070253094424935 0.0008414050619100456
