parametric/NF_MNIST/B1_parametric500.npy (npy, 84128 bytes, 1 tensors)

array (column-major) f8 [21, 500]
0	0xbf261d0268671397	-0.000168711227344212
1	0xbf361d02686700a8	-0.00033742245468816124
2	0xbf461d026866b4fa	-0.0006748449093742219
3	0xbf561d0268658655	-0.0013496898187316437
4	0xbf661d026860cbbf	-0.0026993796373288854
5	0xbf761d02684de179	-0.00539875927358257
6	0xbf861d026802387c	-0.010797518538563582
7	0xbf961d0266d39412	-0.021595037008314284
8	0xbfa61d0262190293	-0.04319007346612582
9	0xbfb61d024f2eb8a5	-0.08638014252821564
10	0xbfc61d02038554eb	-0.17276024982371693
11	0xbfd61d00d4dc04e8	-0.3455202177720609
12	0xbfe61cfc19fab5b0	-0.6910381801041492
13	0xbff61ce92ab56f6b	-1.3820583027181452
14	0xc0061c9d31d8886d	-2.763971700115738
15	0xc0161b699fecbc3e	-5.52677011377733
16	0xc0261663c47cb056	-11.04372991582947
17	0xc035ff82ab444222	-21.998087600865013
18	0xc0458f1415ee776c	-43.117800466002194
19	0xc053ca22ff3e8d51	-79.15838605030628
20	0xc05ef6f524b3f95e	-123.85871236396403
21	0xbeebde1e01b493b4	-1.3288328821811853e-05
22	0xbefbde1e01b515a8	-2.6576657643736422e-05
23	0xbf0bde1e01b72586	-5.315331528838855e-05
24	0xbf1bde1e01bf640a	-0.00010630663058409942
25	0xbf2bde1e01e05ea0	-0.00021261326122678104
26	0xbf3bde1e0264487b	-0.000425226522922213
27	0xbf4bde1e0473f45c	-0.0008504530495937568
28	0xbf5bde1e0cb2a03d	-0.0017009061291819582
29	0xbf6bde1e2dad4dce	-0.003401812498319257
30	0xbf7bde1eb197f6f0	-0.006803626916278324
31	0xbf8bde20c141ea02	-0.01360726918959632
32	0xbf9bde28ffde07f8	-0.02721466123285407
33	0xbfabde49f9941e74	-0.05443030521024364
34	0xbfbbdecdd4c68dd5	-0.10886846966473425
35	0xbfcbe0dc874a24b7	-0.21779972654284105
36	0xbfdbe90bb31a2a44	-0.43609898081254905
37	0xbfec0910085ebc75	-0.8761062777974887
38	0xbffc7dfebf11f618	-1.7807605231931856
39	0xc00db78b4b117b97	-3.7146211495123214
40	0xc01d3a793a18c129	-7.307103069077393
41	0xc01fe903c358bf96	-7.977553417484065
42	0x3f22ef61fce199fa	0.00014446326389645753
43	0x3f32ef61fce1ac1c	0.0002889265277931667
44	0x3f42ef61fce1f524	0.0005778530555883604
45	0x3f52ef61fce31923	0.00115570611119293
46	0x3f62ef61fce7a976	0.00231141222251557
47	0x3f72ef61fcf9ead7	0.004622824446068838
48	0x3f82ef61fd42f021	0.009245648900439165
49	0x3f92ef61fe670574	0.018491297867290382
50	0x3fa2ef6202f75a5b	0.03698259626587649
51	0x3fb2ef621538ac7d	0.07396519678211351
52	0x3fc2ef625e3dd5be	0.14793042756688907
53	0x3fd2ef6382508480	0.295861127147937
54	0x3fe2ef68127be50d	0.5917244301810186
55	0x3ff2ef7a5133e57d	1.1834662601453083
56	0x4002efc32cc43676	2.367071485269487
57	0x4012f0e4a8258cf2	4.735247256557374
58	0x4022f54bebe56734	9.479094859841645
59	0x4033051d13ffc063	19.019974946917852
60	0x40432d900e517d05	38.35595873812603
61	0x405318334f55cc1e	76.37813170794149
62	0x4060cc43f6e85b80	134.38329644567784
63	0x3f30cb16fb95bb4c	0.00025624571897868843
64	0x3f40cb16fb95aaff	0.0005124914379569244
65	0x3f50cb16fb9569aa	0.0010249828759102222
66	0x3f60cb16fb946415	0.002049965751791403
67	0x3f70cb16fb904dfd	0.004099931503350526
68	0x3f80cb16fb7ff575	0.008199863004842748
69	0x3f90cb16fb3e9399	0.01639972599481929
70	0x3fa0cb16fa390be1	0.032799451870708436
71	0x3fb0cb16f622ed0c	0.06559890278997588
72	0x3fc0cb16e5ca7185	0.13119779796842237
73	0x3fd0cb16a4688100	0.26239553504457547
74	0x3fe0cb159ee0971c	0.5247905829498651
75	0x3ff0cb1188be7180	1.0495772687491751
76	0x4000cb01300dfbc4	2.0991233591334737
77	0x4010cabfcacdefe4	4.197997254199411
78	0x4020c9ba0ddcf0a2	8.393997605533801
79	0x4030c5a0996c2e3f	16.77198180094842
80	0x4040b513ac6c3af0	33.4146628883808
81	0x4050712bf27e3fe2	65.76830732659394
82	0x405e0a2cc1b59ee5	120.15898173080821
83	0x4062bcfc5a382592	149.90580473867573
84	0x3f316398a880cce3	0.0002653358174057997
85	0x3f416398a880aac9	0.0005306716348106529
86	0x3f516398a8802260	0.0010613432696137334
87	0x3f616398a87e00d4	0.002122686539166899
88	0x3f716398a8757a9d	0.004245373077849249
89	0x3f816398a85361ca	0.008490746151822121
90	0x3f916398a7cafe77	0.016981492272633205
91	0x3fa16398a5a9711e	0.03396298429717802
92	0x3fb163989d233bd6	0.06792596660964931
93	0x3fc163987b0a67a7	0.13585191734165145
94	0x3fd16397f2a728ff	0.27170370766238244
95	0x3fe16395d11b4d58	0.5434063991655576
96	0x3ff1638d4afdcd45	1.0868046693183981
97	0x4001636b33a690d9	2.1735443148810245
98	0x401162e2e82dd418	4.3465687063189975
99	0x402160c2d69077c8	8.68898649705433
100	0x40315853db32664f	17.345029544643975
101	0x4041379359e33ca5	34.43418429942657
102	0x4050c0a0e6126c06	67.00982047842999
103	0x405ead5e8dac704b	122.70889608230316
104	0x40674907410a9c8f	186.28213550636835
105	0x3f3375b8de18e746	0.0002969337784609515
106	0x3f4375b8de189c4a	0.0005938675569198218
107	0x3f5375b8de177019	0.0011877351138229796
108	0x3f6375b8de12bf4a	0.0023754702275126426
109	0x3f7375b8ddfffc5b	0.00475094045395882
110	0x3f8375b8ddb4f066	0.009501880899385817
111	0x3f9375b8dc88c0cd	0.019003761730517255
112	0x3fa375b8d7d80224	0.03800752291499901
113	0x3fb375b8c51507ed	0.07601504146171552
114	0x3fc375b87a092148	0.15203004797718678
115	0x3fd375b74dd9ad1d	0.3040598163849653
116	0x3fe375b29d1e3d9a	0.6081173962319781
117	0x3ff3759fda569994	1.2162169007147883
118	0x40037554d1997535	2.432290685172712
119	0x40137428d4af0971	4.8634370071252855
120	0x40236f7b3e88c641	9.717737154193971
121	0x40335ce9fcfbf401	19.362945376884458
122	0x404314cbd45eda6a	38.162470384898214
123	0x40520fb439af09c6	72.24537508100101
124	0x405ed2f31fddbfa9	123.29608914046425
125	0x406893ca0b16343f	196.61841348969207
126	0x3f339a4e8c57228f	0.0002991143959119391
127	0x3f439a4e8c56ec4e	0.0005982287918223723
128	0x3f539a4e8c56135d	0.001196457583632702
129	0x3f639a4e8c52afcd	0.0023929151671690852
130	0x3f739a4e8c452194	0.004785830333567626
131	0x3f839a4e8c0ee890	0.009571660660970843
132	0x3f939a4e8b360456	0.019143321272626267
133	0x3fa39a4e87d2736c	0.03828664215072916
134	0x3fb39a4e7a442ff8	0.07657328114527207
135	0x3fc39a4e440b2359	0.15314653704106254
136	0x3fd39a4d6b270441	0.30629287208654793
137	0x3fe39a4a0797becf	0.6125841282173158
138	0x3ff39a3c796e1362	1.225155329070923
139	0x40039a0641fe0544	2.4502072482725072
140	0x4013992d77a5160b	4.899587506724411
141	0x402395cb840b222f	9.792568327292512
142	0x40338856e81a8c92	19.532576090318408
143	0x404353ad9acefef6	38.65373549563621
144	0x40529181aaea5941	74.27353928456888
145	0x40603f88b40a1ecd	129.98543741203903
146	0x406931558ceb4a34	201.54169317202616
147	0x3f36e1880b749411	0.00034913607983561116
148	0x3f46e1880b746d03	0.0006982721596701383
149	0x3f56e1880b73d086	0.0013965443193315898
150	0x3f66e1880b715f13	0.002793088638593741
151	0x3f76e1880b6798d9	0.005586177276631876
152	0x3f86e1880b407fcc	0.01117235454881884
153	0x3f96e1880aa41bf1	0.022344709062078697
154	0x3fa6e18808328c57	0.04468941783968521
155	0x3fb6e187fe6c4e36	0.08937883340359395
156	0x3fc6e187d753560f	0.17875764860097873
157	0x3fd6e1873aef7d60	0.35751515155239666
158	0x3fe6e184c9609d1c	0.7150291379120151
159	0x3ff6e17b032d3ed0	1.4300489544001955
160	0x4006e153eae1f27f	2.8600233411983136
161	0x4016e0b791d73bc7	5.719450262796221
162	0x4026de46afbe5bd8	11.434133045184282
163	0x4036d48b42e48178	22.83024995878938
164	0x4046ae1dbea96234	45.36028273840603
165	0x40561bf85229b42e	88.4370313079132
166	0x4064332d5053a62b	161.59928146684373
167	0x406f3c5ebfece082	249.88656612648998
168	0x3f3712069bdbc203	0.0003520265707797345
169	0x3f4712069bdb95fb	0.0007040531415582468
170	0x3f5712069bdae5b4	0.0014081062831067083
171	0x3f6712069bd8249d	0.002816212566135136
172	0x3f7712069bcd203f	0.005632425131644025
173	0x3f8712069ba10e9b	0.011264850258277994
174	0x3f9712069af0c82d	0.022529700476475668
175	0x3fa71206982fae84	0.04505940063230887
176	0x3fb712068d2b47d2	0.09011879869947784
177	0x3fc712066119ae4a	0.1802375768778453
178	0x3fd71205b0d35af3	0.36047498958707463
179	0x3fe71202efbb3949	0.7209486658337393
180	0x3ff711f7eb6d6a24	1.4418868252165646
181	0x400711cbdb61a3fa	2.883689607541325
182	0x4017111bade8d182	5.766707150778872
183	0x40270e5c23206609	11.528046701149849
184	0x403703709607ebf9	23.013436676916147
185	0x4046d8e6588d2adf	45.694529599122454
186	0x40563f1a56d7c816	88.98598261902256
187	0x40647ce54204f1b1	163.90298558202406
188	0x406f5611fb1448c6	250.6896949192216
189	0x3f3b74b36809fd74	0.00041894321478960013
190	0x3f4b74b368099a93	0.0008378864295764558
191	0x3f5b74b368080f18	0.001675772859130958
192	0x3f6b74b36801e133	0.0033515457180862906
193	0x3f7b74b367e92992	0.006703091434767565
194	0x3f8b74b367864aff	0.013406182858294978
195	0x3f9b74b365fad0e6	0.02681236562666891
196	0x3fab74b35fcce871	0.05362473053396933
197	0x3fbb74b3471546ec	0.10724945531299185
198	0x3fcb74b2e436c56f	0.21449886458644182
199	0x3fdb74b158bd078e	0.4289973608575729
200	0x3feb74ab2ada9202	0.8579917752254576
201	0x3ffb74927398d986	1.7159599795828355
202	0x400b742f9b13597b	3.4317314257888802
203	0x401b72a480f58780	6.861955656991881
204	0x402b6c7c90960cfe	13.711887853924505
205	0x403b542286c76251	27.32865183227324
206	0x404af6b1f951bf3b	53.927306332507634
207	0x4059b04e5a2c45e0	102.75478224109202
208	0x40661eb06af02a00	176.9590353670792
209	0x4070c2755880d40a	268.1536488563876
210	0x3f3eca3a1e4ec50b	0.00046981734186164807
211	0x3f4eca3a1e4eaed4	0.0009396346837226796
212	0x3f5eca3a1e4e560f	0.0018792693674404314
213	0x3f6eca3a1e4cf2e3	0.003758538734841431
214	0x3f7eca3a1e47666d	0.007517077469367456
215	0x3f8eca3a1e31349f	0.015034154936211684
216	0x3f9eca3a1dd86d66	0.03006830985223754
217	0x3faeca3a1c755035	0.060136619542987914
218	0x3fbeca3a16e8dbbd	0.12027323779407957
219	0x3fceca3a00b708ad	0.24054646525298065
220	0x3fdeca39a7efacac	0.4810928478243095
221	0x3feeca3844d13f1f	0.9621850341881987
222	0x3ffeca32b847abe6	1.9243647764621925
223	0x400eca1c8523b8e9	3.848687210228594
224	0x401ec9c3a8c289f0	7.697035443185527
225	0x402ec85f3c61e6a5	15.391351592016983
226	0x403ec2be675d62c6	30.76071783094337
227	0x404eab6791f4c2e6	61.33909820986973
228	0x405e45f6d4d296c6	121.09319038930252
229	0x406c3b67f4332189	225.856439685693
230	0x4074ad0d01e6af7d	330.8156756411698
231	0x3f403c5a1c51e8b6	0.0004954757684026065
232	0x3f503c5a1c51d409	0.0009909515368040653
233	0x3f603c5a1c51814d	0.0019819030735989452
234	0x3f703c5a1c503659	0.003963806147124404
235	0x3f803c5a1c4b0a75	0.007927612293660883
236	0x3f903c5a1c365aee	0.015855224582618392
237	0x3fa03c5a1be39ccd	0.031710449127609765
238	0x3fb03c5a1a98a45b	0.06342089795420362
239	0x3fc03c5a156cc287	0.12684179350027966
240	0x3fd03c5a00bd3b7b	0.2536835677355424
241	0x3fe03c59adff2308	0.5073669813510557
242	0x3ff03c586306fd14	1.0147327297452806
243	0x40003c53372a21fd	2.029455595944681
244	0x40103c3e87f27da8	4.058832287002055
245	0x40203bebcecfa859	8.117033446167783
246	0x40303aa125cf4d15	16.229021418676968
247	0x4040357a2ea2ebe4	32.41779120402478
248	0x40502116770ed17c	64.51699615904903
249	0x405f4845741540b0	125.12923910212953
250	0x406c9eb317510028	228.95936170406753
251	0x4075ea9191c77da5	350.660539416562
252	0x3f40477a2f2dffa9	0.0004968020060544992
253	0x3f50477a2f2de563	0.00099360401210754
254	0x3f60477a2f2d7c25	0.0019872080242033957
255	0x3f70477a2f2bd76a	0.00397441604831337
