parametric/NF_MNIST/B1_parametric_ksdagg_100.npy (npy, 40128 bytes, 1 tensors)

array (column-major) f8 [10, 500]
15.481109960336962 38.64950489160859 96.49077050587135 240.8949045696328 601.4083495462322 1501.4514446196065 3748.462131096351 9358.256465835475
23363.431571578054 58328.059612701916 30.30020355792879 75.64624685367635 188.85532079247596 471.48845677918246 1177.098764741088 2938.696546737552
7336.629318930381 18316.326847692482 45727.77036042637 114161.75353080897 44.485831606808496 111.06150467892051 277.27160257480875 692.2249236096944
1728.1803846362766 4314.5043422589015 10771.41469960625 26891.47135731013 67136.1255443209 167608.9870734261 -7.031765402896175 -17.55521742512255
-43.8276366153015 -109.41828202535491 -273.16920017252596 -681.983033132896 -1702.6108894503618 -4250.668416721495 -10612.041876144562 -26493.546195394476
5.0912488117857455 12.710603203518858 31.732771225818812 79.22273660647741 197.78423863412849 493.7800280011488 1232.750999742062 3077.6358161808894
7683.502200332851 19182.35893946592 -3.550287556550426 -8.863502464298058 -22.128257129281394 -55.244500189072184 -137.92115586570662 -344.32830685117545
-859.6359368148055 -2146.1317451109308 -5357.942772583881 -13376.392118521724 35.32493438355325 88.19078397807586 220.17349824861103 549.6761355653989
1372.2989204244122 3426.0252590884875 8553.274227995878 21353.752852689486 53310.88631503357 133093.49105918474 6.644027526469137 16.587206927799965
41.41094126529721 103.38485941989205 258.1064044340621 644.3778737526403 1608.727379245696 4016.282537085288 10026.881290287034 25032.620886648732
9.577544019897362 23.910904023988643 59.69498339576984 149.0320499332217 372.0673101364826 928.8880014609842 2319.023697601874 5789.579061302367
14454.018183429711 36085.18964361718 24.478539166392032 61.11211803772332 152.5700102304068 380.9000369904291 950.939427335042 2374.0764131679325
5927.021868987848 14797.159321783556 36941.971538448146 92227.65382989269 -16.793577906533702 -41.92615859645178 -104.67112990629344 -261.3176547124475
-652.3949508579964 -1628.7425044833142 -4066.2517741487954 -10151.63703668606 -25344.15249274208 -63273.038403992665 -6.242869553687733 -15.585692367737504
-38.91060104516406 -97.142612463153 -242.52226644846883 -605.4711538138863 -1511.5944639683214 -3773.784601209462 -9421.472761635674 -23521.212061881306
-0.9919702476728912 -2.4765122809540845 -6.182759101814074 -15.435623072714543 -38.53594413683035 -96.20725852731498 -240.1870869435746 -599.6410351087072
-1497.0360350982792 -3737.3889341414715 18.190152896461992 45.41279050094728 113.37571227747668 283.04915844700406 706.6489327614019 1764.190772747807
4404.406367559862 10995.859877979461 27451.803671823665 68534.89874017374 6.482415932156555 16.183734042401696 40.40364738929125 100.87009079724004
251.828136132656 628.7038065708166 1569.5961491385692 3918.589171493615 9782.984975200936 24423.73395143938 -4.5861161074120655 -11.449509588181531
-28.58437656997701 -71.36258348232008 -178.16090219251464 -444.7892075429245 -1110.4424834789081 -2772.284747588989 -6921.165309778845 -17278.98549255289
9.581895674224885 23.921768185895445 59.72210641718708 149.09976415555374 372.2363626625368 929.3100506472247 2320.0773617040554 5792.209493147167
14460.583612405386 36101.55573726057 -17.508851868983086 -43.71188226754763 -109.12929446588173 -272.4477257154807 -680.1818302549842 -1698.1140909357357
-4239.442061800517 -10584.017232925447 -26423.62170296435 -65968.09856031193 -1.7335880907411418 -4.328005005122806 -10.80511998461845 -26.97561988575334
-67.34622745975203 -168.1338324017008 -419.7560376337093 -1047.945724097564 -2616.2583193664514 -6531.642669971523 26.618070125609098 66.45358337746687
165.90529376646856 414.19235953922373 1034.0556758334378 2581.581033321379 6445.069391446535 16090.495370129946 40170.85864394863 100288.71928457911
8.832024499355768 22.049670531727262 55.04830411106253 137.43134080445552 343.1054550917895 856.5830223003179 2138.5100741280726 5338.916537713321
13328.918711960368 33276.4076580939 11.831465185524259 29.537951266719023 73.74323901164426 184.1043493770224 459.62737618115426 1147.486876823823
2864.7687201244544 7152.064129660486 17855.54886338362 44577.40945776013 19.820091509539296 49.482028466487705 123.53480507242809 308.4119333192362
769.9685974599664 1922.2720538948263 4799.065623376499 11981.15009515812 29911.640226055668 74676.0471256963 18.11759535776365 45.231646322316166
112.92347514105917 281.9201217206001 703.8302256289413 1757.1536993915113 4386.837826826031 10951.997863405617 27342.282204972587 68261.20183779928
2.932899788205865 7.322157455215376 18.280198326198388 45.637594233768944 113.93694809739908 284.4503172750836 710.1470158479743 1772.9240581896217
4426.211312176711 11050.324937628342 11.850553000753933 29.585605124223164 73.86220967995534 184.40136667296133 460.3688973855503 1149.3381281540396
00000000: aeda 720b 54f6 2e40 8506 eef9 2253 4340
00000010: c423 b2c8 681f 5840 a573 e80e a31c 6e40
00000020: 3b53 c44c 44cb 8240 a994 7f47 ce75 9740
00000030: 9672 729c ec48 ad40 f45b dfd3 2047 c240
00000040: 6865 de9e dbd0 d640 a5e5 58e8 017b ec40
00000050: 6e72 ef23 da4c 3e40 b36b c31b 5ce9 5240
00000060: bde8 b5c9 5e9b 6740 9241 0eb8 d077 7d40
00000070: e293 9522 6564 9240 d823 c6a1 64f5 a640
00000080: bda0 0b1b a1a8 bc40 7f95 12eb 14e3 d140
00000090: ade8 caa6 f853 e640 5152 760e 1cdf fb40
000000a0: 854d e7ba 2f3e 4640 ef20 52b1 efc3 5b40
000000b0: 0205 f17b 5854 7140 e3dd bfa4 cca1 8540
000000c0: 0906 c0b6 b800 9b40 f903 931c 81da b040
000000d0: 416f e014 b509 c540 efd9 b72a de42 da40
000000e0: 07c3 3a02 0264 f040 9fc0 86e5 c775 0441
000000f0: 5655 1a1c 8720 1cc0 1812 abba 228e 31c0
00000100: 96d8 21ff efe9 45c0 dbd9 f821 c55a 5bc0
00000110: a077 3d0b b512 71c0 62a5 7940 dd4f 85c0
00000120: 1a0b 018d 719a 9ac0 ecb6 5b1d ab9a b0c0
00000130: b08f 325c 05ba c4c0 2087 ddf4 62df d9c0
00000140: afac 1954 705d 1440 b817 df2e d46b 2940
00000150: 7557 22e5 96bb 3f40 521c 0a51 41ce 5340
00000160: eeba 9e7b 18b9 6840 602e a4fe 7adc 7e40
00000170: d88d 1306 0143 9340 60ce b289 450b a840
00000180: a375 3390 8003 be40 d83c ddf8 96bb d240
00000190: 183d 9629 fd66 0cc0 e459 b8fe 1cba 21c0
000001a0: 10be 8f75 d520 36c0 26f7 3dc8 4b9f 4bc0
000001b0: 50b7 dd1b 7a3d 61c0 9f4d afbe 4085 75c0
000001c0: 4c6f 0a66 16dd 8ac0 b65d 1874 43c4 a0c0
000001d0: 5647 8b59 f1ed b4c0 7b91 f030 3220 cac0
000001e0: 835a 2b73 97a9 4140 f19b 00ce 350c 5640
000001f0: 53f6 324c 8d85 6b40 6868 c3b9 682d 8140
00000200: d41b 3218 3271 9540 f65d c2ee 0cc4 aa40
00000210: f928 e719 a3b4 c040 030c bd2e 70da d440
00000220: 6458 b15c dc07 ea40 1770 b0ed 2b3f 0041
00000230: 87a2 aff3 7b93 1a40 afe2 7631 5396 3040
00000240: a283 2fb9 99b4 4440 9c7f 6789 a1d8 5940
00000250: 23c7 22d5 b321 7040 db8c ace2 0523 8440
00000260: 37e0 1ad6 e822 9940 706a b3a8 9060 af40
00000270: 8cc0 1ece 7095 c340 b55a 9bbc 2772 d840
00000280: 49eb 8ad9 b327 2340 76d3 9001 31e9 3740
00000290: 180c 4637 f5d8 4d40 d7e0 948d 06a1 6240
000002a0: 1d2e cbb3 1341 7740 d28d 82a0 1a07 8d40
000002b0: 1692 1722 0c1e a240 0c8c 5c3d 949d b640
000002c0: f8a9 d553 023b cc40 b67d 8f11 a69e e140
000002d0: 4682 f58a 817a 3840 1ca8 44e2 598e 4e40
000002e0: 723f 1886 3d12 6340 55f1 2f8d 66ce 7740
000002f0: ca87 7af2 83b7 8d40 8272 a01f 278c a240
00000300: 9bbb 3499 0527 b740 f5fc a764 94e6 cc40
00000310: b3cc d716 bf09 e240 6455 1676 3a84 f640
00000320: f163 f3eb 27cb 30c0 b755 695d 8cf6 44c0
00000330: 77b9 d9ca f32a 5ac0 1e96 1b1d 1555 70c0
00000340: f9d4 fedb 2863 84c0 df63 1853 f872 99c0
00000350: 1c8e 8ae8 80c4 afc0 7d0a 6b8a d1d3 c3c0
00000360: 07eb 70c2 09c0 d8c0 9102 9b3a 21e5 eec0
00000370: b821 d9cb b2f8 18c0 16e6 b9de df2b 2fc0
00000380: 6e57 3693 8e74 43c0 a04f 0690 2049 58c0
00000390: 187f 2068 b650 6ec0 3870 4aec c4eb 82c0
000003a0: 5d9a 29bb 609e 97c0 15ee 3fb7 917b adc0
000003b0: 030a 7483 bc66 c2c0 3cff 6b92 4df8 d6c0
000003c0: d785 8b63 38be efbf a4b8 b6ab e5cf 03c0
000003d0: e459 b533 25bb 18c0 4d62 c5fc 09df 2ec0
000003e0: ac15 46d1 9944 43c0 a328 45b9 430d 58c0
000003f0: 2b05 c29d fc05 6ec0 e2db 03d7 20bd 82c0
00000400: 7882 62e6 2464 97c0 d633 6022 c732 adc0
00000410: 3f8b 37dc ad30 3240 82d5 b251 d6b4 4640
00000420: f41d 82ab 0b58 5c40 4623 5e5a c9b0 7140
00000430: 31dc a803 3115 8640 3263 ee59 c390 9b40
00000440: c353 b407 6834 b140 2b4c 7b10 ee79 c540
00000450: d7f1 5b6f f3ce da40 5d60 3d61 6ebb f040
00000460: 1fba 2e71 feed 1940 f446 b731 092f 3040
00000470: 940f b8b7 aa33 4440 94ac 4f91 af37 5940
00000480: 97cc 5817 807a 6f40 f0e2 5665 a1a5 8340
00000490: c676 eb74 6286 9840 a0d1 e2a7 2d9d ae40
000004a0: b2d9 aa13 7e1b c340 3f75 0ff9 eed9 d740
000004b0: 7ef9 23d2 2e58 12c0 caf4 e81e 26e6 26c0
000004c0: 9499 f0b3 9995 3cc0 9ca8 5991 34d7 51c0
000004d0: 90d6 5a1c 2645 66c0 e0a9 1698 a0cc 7bc0
000004e0: b99b 631a c559 91c0 a59c 6fca 91a8 a5c0
000004f0: d9dd bd51 2a09 bbc0 475b 4f12 bfdf d0c0
00000500: a2f5 d43a ee29 2340 08ea f4ff f8eb 3740
00000510: 6e06 abfb 6ddc 4d40 532d 9944 31a3 6240
00000520: 7519 3724 c843 7740 786f d5fb 7a0a 8d40
00000530: c309 f49b 2720 a240 d2c7 57a1 35a0 b640
00000540: 56b1 cfb3 4a3e cc40 ea81 99c8 b1a0 e140
00000550: 74ca b71d 4482 31c0 15dc 48f5 1edb 45c0
00000560: 03a1 4b5c 4648 5bc0 1699 70e2 2907 71c0
00000570: a5b4 6b63 7441 85c0 0517 41d4 7488 9ac0
00000580: 0850 f62a 718f b0c0 9b41 b034 02ac c4c0
00000590: ed3a fbc9 e7cd d9c0 47fa b393 011b f0c0
000005a0: 187e a7dd c6bc fbbf 02b5 478b e04f 11c0
000005b0: a495 c6af 389c 25c0 4aa3 8e39 c2f9 3ac0
000005c0: 2d27 3897 28d6 50c0 678e e35a 4804 65c0
000005d0: 3af5 eaba 183c 7ac0 4ed8 e56b c85f 90c0
000005e0: aa9d 6f42 8470 a4c0 d0ed 0486 a483 b9c0
000005f0: 2d20 00d8 399e 3a40 af0e 9382 079d 5040
00000600: 2a08 a22a f8bc 6440 a2a0 98e7 13e3 7940
00000610: 2cef 1503 3928 9040 6b12 337d 292b a440
00000620: 7d49 a3c3 112d b940 c4d5 4968 3f6d cf40
00000630: c9df 027a 5b9d e340 fd8b 3082 0b7c f840
00000640: 5868 7c1d ffa9 2140 f157 3d35 b70c 3640
00000650: 51a3 40d4 2e86 4b40 2312 3b8b cd2d 6140
00000660: eca6 adf1 af71 7540 a285 9807 aac4 8a40
00000670: 37a5 6f28 05b5 a040 4430 37a2 eada b440
00000680: 1d80 5a98 7508 ca40 a8fc 880b 8d3f e040
00000690: b42d 07ce b5a9 2740 6566 992c b789 3d40
000006a0: e707 5c3a 916f 5240 6a35 81d4 5603 6740
000006b0: 8d45 9bbb 09ba 7c40 008e d68f f2ed 9140
000006c0: 9e24 af95 8961 a640 7e2a cd6a 10f0 bb40
000006d0: a8e2 9320 e36f d140 1b29 471a 2dc4 e540
000006e0: d432 6584 f1d1 3340 22a7 d91b b3bd 4840
000006f0: 11f4 0d3f 3ae2 5e40 0964 6447 9746 7340
00000700: 5b6c 06b0 bf0f 8840 1dd4 4b95 1609 9e40
00000710: eb8f b1cc 10bf b240 b571 5136 9366 c740
00000720: c9b4 76f9 e835 dd40 c7df 06c1 403b f240
00000730: 9dc1 b7ba 1a1e 3240 164b 3196 a69d 4640
00000740: 2961 7a37 1a3b 5c40 11a5 8dd1 b89e 7140
00000750: d5a4 554d a4fe 8540 d38f 5f63 9d74 9b40
00000760: 84a1 d17b d622 b140 80f2 fcb9 ff63 c540
00000770: 0272 a50f 92b3 da40 b045 ba3a 53aa f040
00000780: ee50 062a 9476 0740 2140 d9a4 e349 1d40
00000790: 806a d713 bb47 3240 f113 17b0 9cd1 4640
000007a0: 3918 27f5 f67b 5c40 ed14 e37f 34c7 7140
000007b0: 5918 a516 2d31 8640 1b60 4f3c b2b3 9b40
000007c0: 3808 8e18 364a b140 7c63 8e97 2995 c540
000007d0: 7081 d3ae 7bb3 2740 94e8 a837 ea95 3d40
000007e0: fb6c 8271 2e77 5240 58c2 ebfe d70c 6740
000007f0: 4ce8 f100 e7c5 7c40 d44d 443e 5af5 9140
