parametric/NF_MNIST/B2_parametric100.npy (npy, 84128 bytes, 1 tensors)

array (column-major) f8 [21, 500]
00000000: 318e f45b 22a6 733f 2176 f45b 22a6 833f
00000010: e915 f45b 22a6 933f 0b95 f25b 22a6 a33f
00000020: 8b91 ec5b 22a6 b33f 8383 d45b 22a6 c33f
00000030: 694b 745b 22a6 d33f 076b f359 22a6 e33f
00000040: 7ee9 ef53 22a6 f33f bbe3 e13b 22a6 0340
00000050: 31d2 a9db 21a6 1340 00e5 c95a 20a6 2340
00000060: d3be 4f57 1aa6 3340 750c c049 02a6 4340
00000070: 6bf9 0e19 a2a5 5340 1834 faae 21a4 6340
00000080: b3c1 c486 259e 7340 21b8 fe4c 8a86 8340
00000090: 9f04 82d2 e42c 9340 8450 a4c6 dffc a140
000000a0: dfa5 0c43 0cc4 ad40 5906 e0a6 a8c3 7c3f
000000b0: e0db dfa6 a8c3 8c3f fc31 dfa6 a8c3 9c3f
000000c0: 748a dca6 a8c3 ac3f 51ec d1a6 a8c3 bc3f
000000d0: c373 a7a6 a8c3 cc3f 8c91 fda5 a8c3 dc3f
000000e0: aa08 56a3 a8c3 ec3f 29e5 b798 a8c3 fc3f
000000f0: 6e57 3f6e a8c3 0c40 f424 5dc4 a7c3 1c40
00000100: eaa1 d41c a5c3 2c40 cd03 b77e 9ac3 3c40
00000110: c56d 8706 70c3 4c40 48c2 372a c6c2 5c40
00000120: e919 0500 1fc0 6c40 7d0e 1ad0 86b5 7c40
00000130: adc5 5679 6f8b 8c40 4dcb bd2e fbe7 9b40
00000140: 84f8 4d6f 89ab a940 f653 9820 a11c b440
00000150: c987 6587 5b00 783f 4a5c 6587 5b00 883f
00000160: 4eae 6487 5b00 983f 65f6 6187 5b00 a83f
00000170: b616 5787 5b00 b83f fb97 2b87 5b00 c83f
00000180: 199d 7d86 5b00 d83f 88b1 c583 5b00 e83f
00000190: 5703 e678 5b00 f83f 884b 674d 5b00 0840
000001a0: cd7b 6c9f 5a00 1840 df34 82e7 5700 2840
000001b0: 2398 e807 4d00 3840 b309 7a8a 2100 4840
000001c0: a21a 3ba4 73ff 5740 bd66 3502 bdfc 6740
000001d0: 734f a6ba f1f1 7740 e779 61af adc7 8740
000001e0: b9dc e8d2 042b 9740 3052 208c 0638 a540
000001f0: c190 8fcc e4ba b040 8c2e cceb dad2 593f
00000200: 3902 cceb dad2 693f ed50 cbeb dad2 793f
00000210: ba8b c8eb dad2 893f 0377 bdeb dad2 993f
00000220: fa23 91eb dad2 a93f d8d7 dfea dad2 b93f
00000230: 5ba7 1ae8 dad2 c93f 7be5 05dd dad2 d93f
00000240: e9dd b2b0 dad2 e93f b7c1 66ff d9d2 f93f
00000250: 136e 363a d7d2 0940 baf3 7625 ccd2 1940
00000260: cb5b 96d2 9fd2 2940 a943 ec88 eed1 3940
00000270: d87e 9380 29cf 4940 6960 8b75 17c4 5940
00000280: b667 c0bf fb97 6940 e152 9158 2bec 7840
00000290: 49b0 5a8d eaa1 8640 4d02 f384 0f69 9140
000002a0: 4d35 9926 b239 673f 3533 9926 b239 773f
000002b0: d52a 9926 b239 873f 5709 9926 b239 973f
000002c0: 6083 9826 b239 a73f 766b 9626 b239 b73f
000002d0: d10b 8e26 b239 c73f 4e8d 6c26 b239 d73f
000002e0: 0993 e625 b239 e73f b1a8 ce23 b239 f73f
000002f0: 89e9 6e1b b239 0740 5e90 eef9 b139 1740
00000300: 3263 d773 b139 2740 cf45 1e5a af39 3740
00000310: d1da 7add a639 4740 1f2f e090 8339 5740
00000320: b5dc 3f33 e138 6740 3408 e8c5 1f35 7740
00000330: 3dac 2ae8 7617 8740 3956 d750 a43d 9640
00000340: 7c8d cb5c acb1 a240 9428 c090 faa7 683f
00000350: 1c04 c090 faa7 783f 2a72 bf90 faa7 883f
00000360: 722a bd90 faa7 983f 950b b490 faa7 a83f
00000370: 0290 8f90 faa7 b83f dba1 fd8f faa7 c83f
00000380: 36e9 b58d faa7 d83f b006 9784 faa7 e83f
00000390: dd7c 1b60 faa7 f83f 425a 2dce f9a7 0840
000003a0: 9b1b 7586 f7a7 1840 2cdd 9867 eea7 2840
000003b0: 83a6 73ec c9a7 3840 013f 9b04 38a7 4840
000003c0: c9d7 10b1 f0a4 5840 0f51 3624 d89b 6840
000003d0: f145 a0d9 c277 7840 0218 35b4 56ec 8740
000003e0: 408b e8f1 e608 9640 a30f ab94 4959 a140
000003f0: a157 00ea 5115 733f 7b3c 00ea 5115 833f
00000400: dbcf ffe9 5115 933f 5b1d fee9 5115 a33f
00000410: 6753 f7e9 5115 b33f 992b dce9 5115 c33f
00000420: 5e8c 6fe9 5115 d33f 750f bde7 5115 e33f
00000430: cb1b f3e0 5115 f33f 764d cbc5 5115 0340
00000440: 9018 2c59 5115 1340 9a8b afa6 4f15 2340
00000450: 8fc2 c1dc 4815 3340 124a 51b5 2d15 4340
00000460: bdfb f91b c114 5340 6713 3cfd 0e13 6340
00000470: dd06 bee9 4a0c 7340 1052 4073 80f1 8240
00000480: 5b4c 2958 8b8a 9240 c619 057f 4628 a140
00000490: e548 8b68 1965 ab40 4ed3 9cce e5c4 5abf
000004a0: e982 9cce e5c4 6abf 7141 9bce e5c4 7abf
000004b0: 623b 96ce e5c4 8abf 3d23 82ce e5c4 9abf
000004c0: a2c2 31ce e5c4 aabf 3740 f0cc e5c4 babf
000004d0: 7536 eac7 e5c4 cabf b20f d2b3 e5c4 dabf
000004e0: 4e76 7163 e5c4 eabf 102b ef21 e4c4 fabf
000004f0: efa5 e71b dfc4 0ac0 480e e403 cbc4 1ac0
00000500: fc71 7da5 7ac4 2ac0 a963 5c46 39c3 3ac0
00000510: b6ac be70 35be 4ac0 9370 1e5d 40aa 5ac0
00000520: 1392 0aae 055c 6ac0 3bcc 962f 5c3a 79c0
00000530: 0603 fe17 2bc1 85c0 ce17 bedb 9af5 8dc0
00000540: 460e 9d64 629a 64bf 96db 9c64 629a 74bf
00000550: dc10 9c64 629a 84bf f3e5 9864 629a 94bf
00000560: 383a 8c64 629a a4bf 5d8b 5964 629a b4bf
00000570: f4cf 8e63 629a c4bf 4ce2 6360 629a d4bf
00000580: c12b b853 629a e4bf a252 0921 629a f4bf
00000590: 33ff 4d56 619a 04c0 c3c2 612b 5e9a 14c0
000005a0: d4e4 c17f 519a 24c0 a0a6 53d2 1e9a 34c0
000005b0: c636 ad2d 5499 44c0 8ae1 f7ab 2a96 54c0
000005c0: d7a7 dfa1 9589 64c0 b7d1 137d 4c58 74c0
000005d0: a93e da1a 7ea2 83c0 f2f8 f897 1679 91c0
000005e0: 2770 9ff2 d939 9ac0 39bb c7f3 6f78 7cbf
000005f0: da7b c7f3 6f78 8cbf 5f7e c6f3 6f78 9cbf
00000600: 6e88 c2f3 6f78 acbf afb0 b2f3 6f78 bcbf
00000610: b751 73f3 6f78 ccbf d0d5 75f2 6f78 dcbf
00000620: 35e6 7fee 6f78 ecbf db27 a8de 6f78 fcbf
00000630: 942f 499f 6f78 0cc0 6560 cda1 6e78 1cc0
00000640: 5442 dfab 6a78 2cc0 b0b4 38d4 5a78 3cc0
00000650: b221 bd76 1b78 4cc0 5264 b712 1e77 5cc0
00000660: 7df4 bea0 2973 6cc0 9bdb 5ca0 6963 7cc0
00000670: 2e5c 4dab 7f25 8cc0 7610 26ef c63d 9bc0
00000680: abd5 5f4b c95c a8c0 e52a f3eb 3c35 b2c0
00000690: 80a2 5478 6918 40bf 914b 5478 6918 50bf
000006a0: d0ef 5278 6918 60bf 9780 4d78 6918 70bf
000006b0: f8c3 3778 6918 80bf 32d1 e077 6918 90bf
000006c0: 5906 8576 6918 a0bf b8da 1571 6918 b0bf
000006d0: 892c 595b 6918 c0bf f475 6604 6918 d0bf
000006e0: abbe 9ba8 6718 e0bf e00e 7339 6218 f0bf
000006f0: 1b25 f37c 4c18 00c0 31c9 208d f517 10c0
00000700: 5dab a7f0 9916 20c0 bb6c b2aa 2d11 30c0
00000710: 6ced fb19 3ef7 3fc0 d3ef ee45 f74e 4fc0
00000720: 2a8a fe0c 84e9 5cc0 6acc 8079 63e5 65c0
00000730: 61d1 80ae 069b 63c0 23da 6216 130d 61bf
00000740: afd2 6216 130d 71bf e4b4 6216 130d 81bf
00000750: c23d 6216 130d 91bf 3e61 6016 130d a1bf
00000760: 27ef 5816 130d b1bf c526 3b16 130d c1bf
00000770: 4a05 c415 130d d1bf 527f e713 130d e1bf
00000780: 5367 750c 130d f1bf f804 adee 120d 01c0
00000790: cf56 8b77 120d 11c0 7351 029b 100d 21c0
000007a0: 3771 b928 090d 31c0 3a9d 495d eb0c 41c0
000007b0: a831 db0a 740c 51c0 caf0 ac7b 940a 61c0
000007c0: 109e 933e f302 71c0 adac e83e 8ce2 80c0
000007d0: 7ec7 3fd9 8750 90c0 d2dc 351d f747 9cc0
000007e0: ddea 677a 56f3 593f 67b0 677a 56f3 693f
000007f0: a0c6 667a 56f3 793f 771f 637a 56f3 893f
0.004797109809519238 0.00959421961902779 0.01918843923797012 0.03837687847525658 0.07675375694504376 0.15350751384633207 0.3070150273426209 0.6140300518848968
1.2280600813670328 2.4561199835120227 4.912238533248954 9.824465596337632 19.648839432686895 39.296944826864014 78.58801866972287 157.12911175601835
313.884161728459 624.8175296688024 1227.2234592738457 2302.4370623920713 3810.0239490463714 0.0070225322688216235 0.014045064537624385 0.028090129075097878
0.056180258148988665 0.11236051628832057 0.224721032499387 0.44944206438074086 0.898884123817216 1.7977682080803083 3.595536099727659 7.191069667992668
14.382119084316361 28.76407615631233 57.52685624706968 115.04334502644735 230.00378418918925 459.3454133050762 913.4294306544376 1785.9952954917273
3285.768427311503 5148.629403610705 0.0058597159716970515 0.011719431943374787 0.023438863886595045 0.046877727771953905 0.09375545553401818 0.18751091098891934
0.3750218213449031 0.7500436376263204 1.5000872347447591 3.0001741454265733 6.0003456983531125 12.000670656818725 24.001175398145403 48.0010235877884
95.99143319866064 191.89807234220453 383.1215158936022 760.9598071685149 1482.754710806343 2716.0127878284766 4282.893746350136 0.0015761506940092122
0.0031523013880135034 0.006304602775987639 0.01260920555166033 0.025218411100801152 0.05043682218144592 0.1008736442016408 0.20174728711327358 0.40349456390648414
0.8069890452524621 1.613977430020993 3.22794957617385 6.455856881509073 12.911375599722211 25.820046003038133 51.618454048175124 103.06393183337208
204.74948108271718 398.760582511588 724.23952742434 1114.2651555986552 0.0028351287371949697 0.0056702574743894745 0.01134051494877523 0.022681029897520712
0.045362059794803455 0.09072411958770296 0.1814482391601744 0.3628964781984977 0.7257929554221799 1.4515859030457643 2.903171743700288 5.8063429881914015
11.612681980173509 23.225331909552377 46.45040482043044 92.89865514653182 185.77749025796007 371.32025709760205 738.93306001032 1423.4104646345497
2392.8366454706393 0.0030097860199065993 0.006019572039805101 0.01203914407954539 0.024078288158572332 0.048156576312997114 0.0963131525928134 0.19262630492018115
0.3852526077167967 0.7705051984450701 1.5410102609819696 3.0820194346991068 6.164030171296782 12.32799075833335 24.655424860224695 49.30639703350426
98.57719065327468 196.8701344548103 391.4850708256409 765.5423359058334 1410.2255321822158 2220.643712373408 0.004659004189326328 0.009318008378640599
0.01863601675718472 0.03727203351359761 0.07454406702102077 0.149088133992646 0.2981762675901275 0.5963525320189392 1.192705038747351 2.3854098751705193
4.770818131748584 9.54162331478965 19.083143040947615 38.16545740575033 76.32428645527303 152.5955797360759 304.76828932027075 606.1877198243183
1186.6360784962515 2196.1376878351175 3506.54962573304 -0.0016338581285257506 -0.0032677162570425755 -0.006535432514013771 -0.013070865027456417 -0.026141730050343915
-0.052283460064136436 -0.10456691983586174 -0.20913383733243376 -0.4182676559505537 -0.8365351621866439 -1.673069126659076 -3.3461286716526426 -6.692180691522999
-13.383748218119756 -26.762592694812756 -53.48600587187086 -106.66017845127708 -210.8756933409173 -403.64750632195836 -696.146041855304 -958.7006144381537
-0.0025150224436474604 -0.005030044887283666 -0.010060089774477303 -0.020120179548234373 -0.04024035909070672 -0.0804807181353175 -0.1609614359018675 -0.3219228688535949
-0.643845714106071 -1.287691239403252 -2.575380968337322 -5.150749852983327 -10.30140303842419 -20.602032800123766 -41.197881421639565 -82.34635447699671
-164.29951566393603 -325.5186739706218 -628.3115746546147 -1118.2720641042656 -1678.462839595051 -0.006950795472660692 -0.013901590945293241 -0.027803181890361347
-0.05560636377892157 -0.11121272754343424 -0.22242545497159735 -0.4448509090210253 -0.8897018106646956 -1.7794035623105546 -3.5588066524705457 -7.117609527740659
-14.23518883800822 -28.470135940403168 -56.93833812937682 -113.86121051701892 -227.59883153243928 -454.213287699438 -900.6873384517437 -1743.4442716548488
-3118.3931531856847 -4661.2379753093455 -0.0004911913862644807 -0.0009823827725241356 -0.0019647655450096627 -0.003929531089710412 -0.007859062176949635 -0.01571812433412951
-0.03143624851010136 -0.06287249575494058 -0.12574498138778648 -0.251489881798846 -0.5029791157848725 -1.0059530490988706 -2.011864639444537 -4.023397641302197
-8.04414321943994 -16.06710306984017 -31.96579134369442 -62.61692117850148 -115.64868473870652 -175.16839289813953 -156.84456563148254 -0.002081429748695089
-0.004162859497388523 -0.008325718994763816 -0.01665143798942182 -0.03330287597799718 -0.06660575194922257 -0.13321150384427063 -0.266423007255146 -0.5328460110431286
-1.0656919943489427 -2.1313837667991002 -4.262765758399566 -8.52551731494234 -17.05092100646399 -34.10093275160257 -68.19458266645108 -136.3306253793474
-272.1843858496004 -540.3184793641755 -1044.1326646771918 -1809.9913223663357 0.0015838951600232667 0.003167790320040043 0.006335580640028177 0.012671161279641059
