parametric/NF_MNIST/B2_parametric_ksdagg_100.npy (npy, 40128 bytes, 1 tensors)

array (column-major) f8 [10, 500]
00000000: 0e0c 556d 7745 1b3f 1dc0 692b 6905 313f
00000010: 0006 4644 443f 453f 9fa3 0aa4 b985 5a3f
00000020: d451 e1c6 bc8d 703f d2aa 5e78 e1a9 843f
00000030: 4687 01d3 3fcb 993f 7790 9540 5919 b03f
00000040: fc0c dac8 9418 c43f 5748 ba66 c415 d93f
00000050: 63c1 c632 6dd6 603f 2413 24ff 9d04 753f
00000060: 4719 b2a2 833c 8a3f 30c2 ed25 0b60 a03f
00000070: bf43 2193 d770 b43f febc 55b1 0c84 c93f
00000080: a7c6 1cd9 d2d9 df3f 9886 f910 20e1 f33f
00000090: 67bb 0a1f a6d0 0840 116b 0ce0 ddf9 1e40
000000a0: 7545 2168 e042 573f 2fba 16b8 5909 6d3f
000000b0: cdcd 5a16 731f 823f 8d5e 1071 549f 963f
000000c0: b3d1 b4cb 323d ac3f 53bf e5b7 07a0 c13f
000000d0: ad9e bb58 4600 d63f 67ee 8031 a776 eb3f
000000e0: da52 a50a 1c24 0140 2bfe 3a2b 9565 1540
000000f0: 3c55 0e99 f0eb 653f 1eee 9d00 455d 7b3f
00000100: 2103 8769 4414 913f 6535 cec6 cf51 a53f
00000110: 8459 3adc df9c ba3f 46f5 0a91 2f9c d03f
00000120: 0a72 f998 eabb e43f d056 0a52 c3e1 f93f
00000130: 607e 5399 6627 1040 c236 6135 202a 2440
00000140: 66ff bf3e 42d0 353f 7f2c e040 b73a 4b3f
00000150: 93bd b76d b3fe 603f 07cf ba0b e436 753f
00000160: 08d0 d20d 457b 8a3f dd41 a436 3687 a03f
00000170: 52df 7325 bca1 b43f b0a8 35ce 14c1 c93f
00000180: d9dc feca 0013 e03f b5e5 1b78 aa10 f43f
00000190: bc7b 1121 b32e 603f 898b d148 3f33 743f
000001a0: c187 0576 2937 893f 4b41 70b0 d879 9f3f
000001b0: 7ec9 6bea 38a5 b33f 2a45 710d e085 c83f
000001c0: e854 4900 8b9c de3f 74f6 6e0c 191b f33f
000001d0: 037c 75ae 74d9 0740 1c73 29d3 4dc5 1d40
000001e0: 0f37 3583 8cf0 6c3f 7215 8a4b f80f 823f
000001f0: eca9 efc4 018c 963f f553 4ef7 1325 ac3f
00000200: 134e 16c3 f990 c13f 6a84 0089 7bed d53f
00000210: ed61 31fb 315f eb3f 65d4 4f0c 7815 0140
00000220: 56f9 9d63 4f53 1540 4d95 9294 bb9e 2a40
00000230: e2a2 fd4d 897f 60bf 01e5 5866 2798 74bf
00000240: b54f 5529 1fb5 89bf 2661 132b 8a0b a0bf
00000250: 07b5 ae91 5b07 b4bf 003f 4e25 6000 c9bf
00000260: c468 0729 7535 dfbf e150 3db6 897a f3bf
00000270: aa86 9b63 9750 08c0 025e 5012 045a 1ec0
00000280: 7bdc 5df0 af5f 603f bce8 6ab8 6570 743f
00000290: f237 9e92 7e83 893f 23bb 6975 21d9 9f3f
000002a0: 212d ae69 b1e0 b33f 2a04 c77a 1cd0 c83f
000002b0: c567 00d5 35f9 de3f 454a fd62 ef54 f33f
000002c0: 7b5e d0f1 a621 0840 4adc 9069 6b1f 1e40
000002d0: 7b0e ec89 12e3 703f bac2 341a 6714 853f
000002e0: 509a a510 3850 9a3f ce4b c193 576c b03f
000002f0: cfe7 b6b1 3180 c43f 99ad a194 3697 d93f
00000300: 5405 f5c4 bef1 ef3f 9bef ab41 0ef0 0340
00000310: ba0a 5c57 49e3 1840 1384 f824 2211 2f40
00000320: fc27 2eec c73d 593f 90b0 d5d9 1b82 6f3f
00000330: 8739 8a12 61aa 833f 1915 89fa 4f8c 983f
00000340: 38f9 f015 94a4 ae3f a7b3 0a01 1d20 c33f
00000350: 7660 c4c8 b7df d73f 8044 c4cd 21cd ed3f
00000360: fb3b 39cd a499 0240 a53b 4607 db37 1740
00000370: 798a ab2c c79c 3fbf 593c c946 06bb 53bf
00000380: 44f2 0627 17a1 68bf 700f cde6 83be 7ebf
00000390: ce62 832d 4d30 93bf 2a0b 62e0 ecf3 a7bf
000003a0: 1c3f f74e 5be6 bdbf 7323 5257 63a9 d2bf
000003b0: dfd8 7677 834b e7bf e595 b98d 1d14 fdbf
000003c0: 58a6 b5b0 aef3 5b3f 54b9 c957 2572 713f
000003d0: 916f 7b97 ffc6 853f 30b6 e903 282f 9b3f
000003e0: 4e52 3c73 7cf7 b03f 365d 937f e22d c53f
000003f0: c904 e111 0770 da3f 76cb 91e2 3180 f03f
00000400: 6e5c ee53 f998 0440 b464 4743 21b6 1940
00000410: 48c2 9376 9163 4abf f53f 9f30 6b78 60bf
00000420: 9c0a 2de4 448f 74bf 98f7 69f0 07aa 89bf
00000430: 04f2 c318 9e04 a0bf 692c 5587 b7fe b3bf
00000440: 5485 f5e6 96f5 c8bf 2bc7 af5d fe27 dfbf
00000450: a1c4 9d77 2272 f3bf 81d7 0052 1a46 08c0
00000460: ebd9 34aa 0d77 5c3f b7ae 71c5 23c4 713f
00000470: 473c 7283 592d 863f fa00 6656 ebae 9b3f
00000480: fc40 f363 3a47 b13f 74d5 85cd 6c91 c53f
00000490: 8be9 bb1d 48ec da3f d069 8134 bfcd f03f
000004a0: 7e2e 080d c8f9 0440 4b44 f1d1 fa2e 1a40
000004b0: 6428 73c6 0f69 743f 234b 4a5f 567a 893f
000004c0: 1892 c23d b3cd 9f3f 915f 620b 8fd9 b33f
000004d0: 0fa6 dca9 34c7 c83f 7e10 3400 18ee de3f
000004e0: 021a 1a41 ff4d f33f 4c3d 5055 fe18 0840
000004f0: 2445 c656 a014 1e40 d6e1 977d 42c6 3240
00000500: e32a 4ea4 9df3 643f 0318 1fae 4a27 7a3f
00000510: 108a 8839 cc52 903f b463 34c1 4e60 a43f
00000520: 8d92 b1f3 686f b93f 3bbb b746 0fc0 cf3f
00000530: 12b9 728f 0bd1 e33f fda5 1afb 93bc f83f
00000540: 2620 2f3a d3e0 0e40 d431 c5da b445 2340
00000550: f344 769a 9a18 743f ed7b 3458 e715 893f
00000560: f471 2bb1 5450 9f3f 6b5a 708f 4f8b b33f
00000570: a94f aac5 8765 c83f 5d54 20e8 2a74 de3f
00000580: 36e6 88eb e501 f33f 069e 3c2c 00ba 0740
00000590: ab5a 5966 0c9e 1d40 04fa 16d7 3f7c 3240
000005a0: 0aa7 2736 3b7a 573f dcbd 2cd8 724e 6d3f
000005b0: 46dd df92 934a 823f 8dc6 ff0d 2ad5 963f
000005c0: 0ca8 da19 6680 ac3f d17f 38fc f8c9 c13f
000005d0: 4439 2e75 a134 d63f 0467 5c07 02b8 eb3f
000005e0: ef50 1972 e64c 0140 a2ed 2f66 8098 1540
000005f0: 8ac0 e38c 2329 233f f40e ccff fbea 373f
00000600: 232b e52a 32db 4d3f 1b3d a427 6ca2 623f
00000610: bdd3 a716 d242 773f cd50 d9d5 4709 8d3f
00000620: fd80 60e2 671f a23f dd03 3523 469f b63f
00000630: 9d9a 1c74 1e3d cc3f 676f 4d59 f19f e13f
00000640: b456 b616 9e11 61bf 29d2 0f0a 814e 75bf
00000650: 6074 54e5 be98 8abf b17c dadf 9b99 a0bf
00000660: 33e3 ce20 b3b8 b4bf 7a93 057c bfdd c9bf
00000670: 3714 8b69 e524 e0bf a709 b25e 0227 f4bf
00000680: 3636 3f09 e227 09c0 6a1a 14e9 c066 1fc0
00000690: 94e4 ddb5 ba61 6f3f 99fe 827d 2b96 833f
000006a0: 7b02 eee6 1573 983f e502 e899 1685 ae3f
000006b0: 613b 0983 750c c33f 0c39 e814 2fc7 d73f
000006c0: a933 5ac7 81ae ed3f f4ef e1b6 8786 0240
000006d0: ed73 1a85 0020 1740 3362 57da cedd 2c40
000006e0: 8af6 0fe7 7db3 243f 65c6 c73f 3fd7 393f
000006f0: cb73 3bb5 d620 503f ef1b e2dc f121 643f
00000700: 831b da4d 9021 793f 100f 3fc0 e25e 8f3f
00000710: 14c6 571f 6594 a33f 3027 af92 de70 b83f
00000720: 8693 b43d 5182 ce3f 71a4 9633 b60a e33f
00000730: 747a 4b9a a2c2 3dbf e14f f8d5 1793 52bf
00000740: 593c 5971 af2f 67bf 8f4f 70f7 64f1 7cbf
00000750: a392 4964 7f10 92bf ed95 9766 aa8c a6bf
00000760: a1f8 4769 e625 bcbf 970b 35e6 7c91 d1bf
00000770: 88e5 cc98 1dee e5bf b307 c590 ef5f fbbf
00000780: 8582 9b6c 0b9d 4a3f 92b6 0dc2 4a9c 603f
00000790: ca86 1e8d 0cbc 743f b520 80ca ede1 893f
000007a0: d7d0 c071 8127 a03f 9dfc 0559 442a b43f
000007b0: 01a0 4ec0 f32b c93f 611e bb88 da6b df3f
000007c0: bfe3 2a53 7d9c f33f b100 c1c4 fa7a 0840
000007d0: 72b1 3bad 1280 663f cad0 495b 2e16 7c3f
000007e0: 7ab7 7889 ad87 913f b2d2 c359 e0e1 a53f
000007f0: b33a 1b20 b550 bb3f 4665 1141 6d0c d13f
0.0001040319578651668 0.00025972192398793383 0.000648411115023062 0.0016187966249765274 0.004041421327276546 0.010089646802801697 0.02518939710024106 0.06288678957713666
0.15700015837874293 0.3919535639953486 0.0020553715496235843 0.00513135640563148 0.012810734179094964 0.03198275411603324 0.07984683362998533 0.19934233340197943
0.49766989900954645 1.2424622214388474 3.101879351153389 7.744010449178647 0.0014197532150500268 0.003544497711764259 0.008849047774993313 0.022092170143962298
0.05515440689706299 0.13769623259895045 0.34376677193948063 0.8582340208881306 2.142631610079076 5.349201846576345 0.0026759814431424316 0.0066807456404336645
0.016678875866776303 0.04163979818177203 0.10395621420534523 0.2595328251298564 0.6479390132695368 1.6176179127409576 4.038477321358727 10.082276981465274
0.0003328477603190466 0.0008309740821926952 0.002074575849966906 0.0051793010749638995 0.012930430874213542 0.032281583948250626 0.08059287943239937 0.20120487278774624
0.5023197140461902 1.254068822074584 0.0019753931633625637 0.004931685643074676 0.012312244333489876 0.03073824479003066 0.07673984263582231 0.19158554703111835
0.47830462482427416 1.1941156850511137 2.981179583511677 7.442679690747152 0.003532671392952553 0.008819522671965816 0.022018458981543462 0.05497038263198554
0.1372368052076217 0.34261978510955393 0.8553705125914896 2.1354828798162537 5.331357532994238 13.310024874585588 -0.002013939068934754 -0.005027917771763813
-0.012552493523493394 -0.03133804107500486 -0.0782372694654506 -0.19532396146359332 -0.4876377964661851 -1.2174164885264462 -3.039351251777437 -7.587906156687952
0.001998752241827937 0.0049900029613871265 0.012457836961200262 0.031101725379296796 0.07764729337775524 0.19385105128279295 0.48396058846412543 1.2082361094259266
3.0164317027773087 7.530683183161338 0.0041228031320802395 0.010292821395155517 0.025696636215253144 0.06415316922475187 0.160162174009939 0.3998543216209441
0.9982599112337689 2.492214692172593 6.221959462158958 15.533463626228729 0.0015406086319864612 0.0038462203944416642 0.009602316263479306 0.023972749392005974
0.0598493840011422 0.14941752005452466 0.37302965742265515 0.9312905329590109 2.325021365460541 5.804546464597398 -0.00048236715944775067 -0.0012042580884956881
-0.0030065014072689095 -0.007505908241743117 -0.018738943007380375 -0.04678287734079441 -0.11679621389270917 -0.29158862616946307 -0.7279679616247242 -1.8174109970217327
0.0017060476264653315 0.004259248610294659 0.010633465586060516 0.026547074545694993 0.06627633870477576 0.1654627917221007 0.4130876230811507 1.0312975740787045
2.5746943051449795 6.427861262543207 -0.0008053264874928268 -0.0020105451157874606 -0.005019444567383371 -0.012531339668608685 -0.03128522922813562 -0.07810542158147062
-0.19499479558275346 -0.4868160166653179 -1.215364901782131 -3.034229889536562 0.0017373689123140145 0.004337444049365472 0.010828685115738547 0.027034451626151125
0.06749310436430628 0.16850051913540265 0.42067149070467086 1.050231175517741 2.6219635980722265 6.54587867770267 0.00498300707040231 0.012440371306444547
0.03105812134221439 0.07753843334137246 0.19357927602804678 0.4832820894228077 1.2065422575993812 3.01220385218736 7.5201428946032 18.774452066021546
0.002557571310210492 0.006385127753622657 0.01594084836154691 0.03979726894812732 0.09935623120834176 0.2480486960698388 0.6192682077142158 1.5460395630601618
3.859777884066733 9.636145435878383 0.0049062766260174915 0.012248809222510782 0.030579875291424544 0.07634446384359143 0.19059846068978217 0.4758403078897738
1.1879634094788236 2.9658206420897413 7.404344176486727 18.485349124059226 0.0014329508054466444 0.0035774462752653346 0.00893130580878555 0.022297532181204494
0.055667105346700024 0.1389762145563496 0.3469623226491374 0.8662119048851484 2.1625489152885318 5.398927303958233 0.00014618452991710759 0.0003649583084526086
0.0009111399611268816 0.0022747146987353146 0.005678959520527491 0.014177857602739508 0.03539585722342229 0.08836782798336125 0.22061520261305115 0.5507742637814602
-0.0020835960073764762 -0.005201820430546658 -0.012986651776879465 -0.03242194278322453 -0.08094329405765847 -0.20207971149207166 -0.5045039235489018 -1.2595237444917105
-3.1444740984359454 -7.850345270015717 0.0038307806670983633 0.009563770072758703 0.023876516551811094 0.059609133040799546 0.1488177194427989 0.37153222123824103
0.9275521176910974 2.3156885421467397 5.781251983394196 14.433218787352507 0.00015793716332261994 0.0003942994515276687 0.00098439185688125 0.0024575923808387505
0.0061355244521398315 0.015317698947803687 0.03824153907397601 0.0954722507587149 0.23835196984250845 0.5950575835787629 -0.0004541060427935347 -0.001133702542465358
-0.0028303553215561048 -0.007066149139990942 -0.017641058441216228 -0.044041943572476906 -0.10995330877628585 -0.27450487595722833 -0.6853168472654696 -1.710921826845589
0.0008121782095394525 0.0020276508443462593 0.0050621500285232355 0.012637956373524476 0.031551404128920595 0.07876994298384195 0.19665381326672107 0.49095786430959804
1.2257054566127719 3.060048615589118 0.0027466168192999347 0.006857091026734883 0.017119132533643257 0.04273892493975974 0.10670024904104984 0.26638347009937424
