parametric/NF_MNIST/B2_parametric_ksdagg_100.npy (npy, 40128 bytes, 1 tensors)

array (column-major) f8 [10, 500]
1.0299163828651514 2.571247047480545 6.419270038728314 16.02608658726762 40.01007114003781 99.8875033477368 249.3750312923865 622.5792168136529
1554.301567949555 3880.340283553951 20.348178341273485 50.800428415751654 126.82626837304014 316.6292657487291 790.4836529368548 1973.4891006795963
4926.93200019451 12300.37599224459 30708.605576418548 76665.7034468686 14.055556828995265 35.09052734646616 87.6055729724338 218.71248442522676
546.0286282809236 1363.1927027296094 3403.291042200858 8496.516806792493 21212.05293978285 52957.09828110581 26.49221628711007 66.13938184029328
165.1208710810854 412.23400199954307 1029.1665206329178 2569.3749687855784 6414.596231368415 16014.41733613548 39980.92548145139 99814.54211650621
3.2951928271585613 8.226643413707682 20.53830091467237 51.275080642142605 128.01126565471407 319.5876810876812 797.8695063807538 1991.9282405986878
4972.965169057284 12415.281338538382 19.55639231728938 48.82368786643929 121.89121890154978 304.30862342130354 759.724442094641 1896.6969156080718
4735.215785760314 11821.745282006026 29513.6778767656 73682.5289383968 34.97344679023028 87.31327445246158 217.9827439172803 544.2067880566568
1358.6443715554547 3391.9358725845836 8468.168074655747 21141.28051018091 52780.43957664295 131769.24625839732 -19.937996782454064 -49.77638594046175
-124.2696858825846 -310.2466066425481 -774.548967707961 -1933.707218489574 -4827.614185015233 -12052.423236411818 -30089.577392596628 -75120.27095121072
19.787647194096575 49.40102931773255 123.33258591588259 307.9070812550383 768.7082044397769 1919.1254076996502 4791.209825794842 11961.537483316673
29862.673857495356 74553.76351329725 40.81575100759437 101.89893181203962 254.3966985310061 635.1163753250435 1585.6055226983963 3958.5577840473466
9882.773121214312 24672.925452508673 61597.39867537369 153781.2898996644 15.252025456665965 38.077581904972476 95.06293100844513 237.33021898085914
592.5089016113078 1479.2334485397942 3692.9936084842857 9219.776276294207 23017.711518059357 57465.009999514245 -4.775434878532732 -11.922155076107313
-29.764363931962205 -74.30849159325686 -185.51553577306572 -463.15048567386464 -1156.2825175378207 -2886.7273990776844 -7206.88282008477 -17992.368870515154
16.88987150200678 42.16656124191712 105.27130930199911 262.8160380023804 656.13575317728 1638.081638048797 4089.5674685033923 10209.845983379175
25489.4736209353 63635.82649917775 -7.9727322261789855 -19.90439664629586 -49.69250121709537 -124.06026271922597 -309.7237693585426 -773.243673656559
-1930.4484762692591 -4819.478564986647 -12032.112527643098 -30038.875906411962 17.199952231908743 42.94069608871817 107.2039826458116 267.64107109889613
668.1817332066322 1668.1551394404862 4164.647757976241 10397.288637625636 25957.43962091504 64804.19890925643 49.33176999698287 123.15967593380103
307.47540128792247 767.6304900795874 1916.434832677663 4784.492685285796 11944.768350233873 29820.818136654867 74449.41465657168 185867.0754536133
25.31995597108387 63.21276476086431 157.81439877931442 393.9929625864605 983.6266889625834 2455.682091091404 6130.755256370736 15305.791674295602
38211.80105226066 95397.83981519598 48.572138597573165 121.26321130285675 302.740765385103 755.8101920515552 1886.9247608288435 4710.81904810876
11760.837753840353 29361.624356688437 73303.00734721859 183004.95632818632 14.18621297392178 35.41671812512681 88.41992750697693 220.7455685939245
551.1043429323303 1375.864524107861 3434.9269942264605 8575.497858362969 21409.234261356465 53449.38030918651 1.4472268461793651 3.613087253680825
9.020285615156128 22.519675517479612 56.221699253222155 140.36079026712113 350.4189865118807 874.8414970352763 2184.0905058692065 5452.665211436456
-20.627600473027115 -51.49802226241191 -128.5678525911067 -320.9772335539228 -801.3386111708189 -2000.5891437715095 -4994.588843134128 -12469.285070467933
-31130.293574515857 -77718.4181731556 37.924728604273795 94.68132372031116 236.37751386292982 590.1304171039155 1473.295422483709 3678.1689902585863
9182.765965141863 22925.316567252725 57234.39463560254 142888.8659947898 1.5635779168939374 3.90356457012392 9.745479383124374 24.33016457030363
60.741692076184336 151.6452195832565 378.5912368323625 945.1752825112776 2359.6845014408336 5891.070077429753 -4.495649823655993 -11.223655170407042
-28.020517683405437 -69.95487648591033 -174.64647856804066 -436.01524136752136 -1088.53775688523 -2717.5982719765607 -6784.636787928149 -16938.12608577133
8.04056427444058 20.07374335902797 50.11528528238003 125.11576809789231 312.3589008763139 779.8224355400353 1946.8727513405386 4860.48285666502
12134.484020466442 30294.48129433227 27.191506511069353 67.88520116467534 169.47941208306824 423.11535690362143 1056.3324655063934 2637.1963539838052
00000000: b953 e099 897a f03f 8bec d6f8 e991 0440
00000010: 801f 0220 55ad 1940 be2d 4f9c ad06 3040
00000020: 448c d802 4a01 4440 af67 d7da ccf8 5840
00000030: daf8 9f41 002c 6f40 76bf 6c3c a274 8340
00000040: 7183 3ace 3449 9840 2c5f a539 ae50 ae40
00000050: f5f1 3c37 2259 3440 a238 3670 7466 4940
00000060: 4cfb bd94 e1b4 5f40 8d34 f678 11ca 7340
00000070: 3f53 6e85 deb3 8840 45fd ced6 f4d5 9e40
00000080: 4993 9097 ee3e b340 088d 8320 3006 c840
00000090: 3998 c3c1 26fd dd40 f280 5141 9bb7 f240
000000a0: 5035 d7f1 711c 2c40 a03b 6c66 968b 4140
000000b0: 76fc 23b5 c1e6 5540 4428 23ac cc56 6b40
000000c0: 76d2 76a1 3a10 8140 1746 dd53 c54c 9540
000000d0: e2bc 7b03 9596 aa40 0e98 b926 4298 c040
000000e0: 008b 5d63 03b7 d440 e96a 1e25 a3db e940
000000f0: 41b2 f7e2 017e 3a40 d26d cfa1 eb88 5040
00000100: 6889 072d dea3 6440 c773 e178 bec3 7940
00000110: f781 6284 aa14 9040 299e e8fb bf12 a440
00000120: 3174 9ea2 980e b940 aa3e 456b 3547 cf40
00000130: d946 8b9d 9d85 e340 8d5b 82ac 685e f840
00000140: 4647 950e 8e5c 0a40 e374 039b 0a74 2040
00000150: baec b716 ce89 3440 f1e1 acd7 35a3 4940
00000160: 1452 ca49 5c00 6040 18c1 4824 67f9 7340
00000170: 02e8 c2bf f4ee 8840 bc18 b484 b61f 9f40
00000180: 25c0 5115 f76c b340 bab6 e602 a43f c840
00000190: e880 16ba 6f8e 3340 013c a09a 6e69 4840
000001a0: efee 00bb 0979 5e40 74d4 1c1f f004 7340
000001b0: a102 4ca8 cbbd 8740 f6c2 3ea4 c9a2 9d40
000001c0: 7e4f bc3d 377f b240 1799 6665 df16 c740
000001d0: be3a 5562 6bd2 dc40 be1b 8876 28fd f140
000001e0: b537 88e7 997c 4140 abff 49b0 0cd4 5540
000001f0: fa21 5fa3 723f 6b40 5b24 7f80 a701 8140
00000200: 9a14 23d6 933a 9540 0500 b12a df7f aa40
00000210: dc66 7883 158a c040 4df9 e0f3 51a5 d440
00000220: 3209 0311 8ec5 e940 9752 56f8 c915 0041
00000230: b864 a08e 20f0 33c0 c0ad 4f9d 60e3 48c0
00000240: 3379 9388 4211 5fc0 878b ce19 f263 73c0
00000250: 0582 2e49 6434 88c0 636f 1531 d436 9ec0
00000260: 1eaa 3a3b 9ddb b2c0 9e59 9c2c 368a c7c0
00000270: de13 00f4 6462 ddc0 ceef d055 0457 f2c0
00000280: 536e 1b3f a3c9 3340 0233 beed 54b3 4840
00000290: dcf4 6f16 49d5 5e40 4453 a267 833e 7340
000002a0: cadd 1667 aa05 8840 a842 e06a 80fc 9d40
000002b0: b4ae 24b7 35b7 b240 a1d9 40cc c45c c740
000002c0: 2e30 7b20 ab29 dd40 1cb8 5937 9c33 f240
000002d0: 00a6 6d87 6a68 4440 d482 4b19 8879 5940
000002e0: 5c21 1ec1 b1cc 6f40 fcb8 2f56 eed8 8340
000002f0: 646a 240e 6cc6 9840 2be3 de95 1ded ae40
00000300: a8cd a2f5 624d c340 b028 9d3a 3b18 d840
00000310: 77db f2c1 ac13 ee40 4eea b651 aac5 0241
00000320: 9247 0c7b 0981 2e40 204f 3034 ee09 4340
00000330: 46cb c70f 07c4 5740 df69 6527 91aa 6d40
00000340: 970b 023b 1284 8240 dc4e 220d ef1c 9740
00000350: 1252 40ba fcd9 ac40 2488 055d e301 c240
00000360: dd0a 8389 6d7a d640 5580 ea51 200f ec40
00000370: 3ce7 cd99 0b1a 13c0 4e71 cbb5 24d8 27c0
00000380: 0705 ca5a adc3 3dc0 4408 8653 be93 52c0
00000390: 88a7 e044 7f30 67c0 3e7c aa63 68f2 7cc0
000003a0: f205 474c 2111 92c0 97e3 a66d 748d a6c0
000003b0: 5740 7f00 e226 bcc0 c313 939b 1792 d1c0
000003c0: f3c2 669e cee3 3040 5868 f7e0 5115 4540
000003d0: f4cb b021 5d51 5a40 4648 dd7d 0e6d 7040
000003e0: f705 c305 1681 8440 c5b6 ec98 5398 9940
000003f0: 294f 3b8b 22f3 af40 42f1 2e49 ecf0 c340
00000400: f42e ce4f 5ee4 d840 5367 ae72 7a12 ef40
00000410: ead0 acea 13e4 1fc0 eb73 e289 86e7 33c0
00000420: b2ee 3fe1 a3d8 48c0 970f 2a58 db03 5fc0
00000430: 99cc 2d8f 945b 73c0 8b8e 2c0b f329 88c0
00000440: 00f6 5c3d cb29 9ec0 a926 3c83 7ad3 b2c0
00000450: 8049 4e67 0e80 c7c0 6fc4 d90e b855 ddc0
00000460: 6dcf c811 3033 3140 8442 bcba 6878 4540
00000470: 982d 3a0d 0ecd 5a40 b7c2 c4d3 41ba 7040
00000480: a918 8a30 74e1 8440 d59c dfdc 9e10 9a40
00000490: ae7b 77d3 a544 b040 40e5 13f2 a44e c440
000004a0: 2fc3 bf22 5c59 d940 e8f1 765d 86a4 ef40
000004b0: f06a 7370 77aa 4840 8e68 6821 38ca 5e40
000004c0: a781 613e 9b37 7340 3e02 623e 0bfd 8740
000004d0: 2e07 c744 bdf1 9d40 b775 9f20 7eb0 b240
000004e0: 2eeb 4c59 6254 c740 14d8 595c 341f dd40
000004f0: e7ed 6ea2 162d f240 8c6c 879a 58b0 0641
00000500: 14f7 6fa2 e851 3940 a5d3 2ce0 3b9b 4f40
00000510: d961 078e 0fba 6340 feaf bc2c e39f 7840
00000520: 7bb8 8075 03bd 8e40 f224 0b3b 5d2f a340
00000530: 6844 7b58 c1f2 b740 5954 9555 e5e4 cd40
00000540: bd59 38a2 79a8 e240 170f e26f 5d4a f740
00000550: 93ad 6ad6 3b49 4840 446d 3874 d850 5e40
00000560: 6bf0 cd2c daeb 7240 4567 f845 7b9e 8740
00000570: 05b2 80f4 b27b 9d40 fa08 23ad d166 b240
00000580: 3591 843b 6bf8 c640 78c1 75f5 67ac dc40
00000590: f91d 181e 70e5 f140 6464 8fa6 e756 0641
000005a0: 7e2b 924e 575f 2c40 f988 ff04 57b5 4140
000005b0: 084a 9f17 e01a 5640 93fa aab2 db97 6b40
000005c0: 6b4f bfb1 d538 8140 77c7 ce45 757f 9540
000005d0: 75bc fc9e dad5 aa40 7fa5 d2b9 bfbf c040
000005e0: 2f58 23fe 4ee8 d440 ce2b 7e2b 2c19 ea40
000005f0: cfbc 6356 d727 f73f 923a 414a 9ae7 0c40
00000600: 8159 4be0 620a 2240 581b 6874 0985 3640
00000610: 8211 21a4 601c 4c40 03c0 0798 8b8b 6140
00000620: e25f 332b b4e6 7540 8b31 cc62 bb56 8b40
00000630: ad08 c956 2e10 a140 81f4 4b4b aa4c b540
00000640: 089b b26c aaa0 34c0 9ade 8831 bfbf 49c0
00000650: 1278 32d9 2b12 60c0 70aa a6bf a20f 74c0
00000660: d205 c679 b50a 89c0 1a3d 8148 5b42 9fc0
00000670: 8e73 6cbe 9682 b3c0 6a68 307d a45a c8c0
00000680: 23c4 ecc9 9266 dec0 b655 d6b0 66f9 f2c0
00000690: 0e84 c481 5df6 4240 6e2e cece 9aab 5740
000006a0: 3fe2 f397 148c 6d40 4061 1f18 0b71 8240
000006b0: 2248 3b83 2e05 9740 f123 e485 56bc ac40
000006c0: 1751 250b 62ef c140 5c4b a342 5463 d640
000006d0: d8d7 daa0 4cf2 eb40 26ad 8eed 4671 0141
000006e0: 91ea 1c47 6a04 f93f 620d b40f 803a 0f40
000006f0: 0fb9 4479 af7d 2340 82c0 4faa 8554 3840
00000700: 0075 15c4 ef5e 4e40 6a1a 8aa3 a5f4 6240
00000710: 00b3 c0b4 75a9 7740 fc6b 84fa 6689 8d40
00000720: e40c f976 5e6f a240 fa2c 98f0 1103 b740
00000730: 8e7b 9ba0 8bfb 11c0 88f5 34ee 8272 26c0
00000740: 4e37 9ba5 4005 3cc0 13ad 43b2 1c7d 51c0
00000750: 9669 d2f3 afd4 65c0 cf70 bb6d 3e40 7bc0
00000760: 0cad bda9 2602 91c0 e25a b450 323b a5c0
00000770: e39d 8804 a380 bac0 170e ca11 888a d0c0
00000780: 6e37 30d7 c414 2040 8352 43d8 e012 3440
00000790: 24c4 0aab c10e 4940 8797 98be 6847 5f40
000007a0: 6264 d80e be85 7340 289c 1559 945e 8840
000007b0: 9d04 87b2 7d6b 9e40 eb90 7e9c 7bfc b240
000007c0: fbf4 61f4 3db3 c740 36be 86cd 9e95 dd40
000007d0: 9103 1a92 0631 3b40 592a c922 a7f8 5040
000007e0: bb42 0258 572f 6540 c006 7b80 d871 7a40
000007f0: 0874 d671 5481 9040 c465 8288 649a a440
