parametric/NF_MNIST/B_parametric100.npy (npy, 4128 bytes, 1 tensors)

array f8 [500]
00000000: ff17 d035 7cbd b8c0 cc1e 755a 31e8 b4c0
00000010: 40a4 2e68 8451 b2c0 9a21 cb26 c620 b2c0
00000020: bf82 5497 76a1 b0c0 988a 0c1e 9156 b0c0
00000030: 0f62 7d72 6e41 b0c0 b1fc 6378 712e b0c0
00000040: 3050 ba78 52f8 adc0 14d6 c0f6 65b0 adc0
00000050: d449 7118 ed80 adc0 ada2 35bf d21f adc0
00000060: 11bd aaaf 9d3f aac0 4404 5be4 2c09 aac0
00000070: b488 88c2 7fef a9c0 d145 1bd0 16a3 a8c0
00000080: f4b1 8e3e 3621 a8c0 1633 44fa b7f6 a7c0
00000090: dfd8 9950 c1d9 a7c0 95f3 4573 727f a7c0
000000a0: 8ebf 47e9 782d a7c0 df70 f5ae cb18 a7c0
000000b0: 2455 83b1 7260 a6c0 d3b5 bef6 6079 a5c0
000000c0: ca41 6d7b 7e46 a5c0 eef4 39ed 786b a4c0
000000d0: cffe 8720 cb04 a4c0 1a7b 8e5c 40e7 a3c0
000000e0: 292d 2403 552b a3c0 3501 57b3 ce2e a2c0
000000f0: 15a0 7e79 112e a2c0 e2b9 5dbc aa14 a2c0
00000100: f71b 06ab 53f5 a1c0 09e0 849a 8054 a1c0
00000110: faa0 0cee 430e a1c0 1749 9904 8de4 a0c0
00000120: 3880 f3b7 b6b7 a0c0 736d 4b0f 92ab a0c0
00000130: 1c9c 0a18 266b a0c0 7f7e 8206 7d2e a0c0
00000140: b887 6245 6d23 a0c0 76cb 5094 f1cd 9fc0
00000150: 05b6 a581 bbcc 9fc0 22f1 942e cc97 9fc0
00000160: 456f f504 4009 9ec0 71d8 9f2c 59b0 9dc0
00000170: b9dc eea4 2303 9dc0 70cf 3882 cdc6 9cc0
00000180: 2a74 1a2a 3635 9cc0 5dfa 32bf 2cfd 9bc0
00000190: 705b 0f91 8dc8 9bc0 64db dd73 ecb3 9bc0
000001a0: 975d 3a46 359f 9bc0 07b1 0110 ec74 9bc0
000001b0: 5ebc 9525 69f4 9ac0 6571 5566 65ea 9ac0
000001c0: 2e33 1e04 3ac1 9ac0 2e4b 4a6c 38ea 99c0
000001d0: e893 71ac 61a9 99c0 ef3c 3e35 84ea 98c0
000001e0: d318 d30c 87d9 98c0 e2e1 a984 db91 98c0
000001f0: 4b24 d080 6189 98c0 ab09 3227 d367 98c0
00000200: 2b89 c4ba bf52 98c0 62dd cea4 6549 98c0
00000210: 9e42 5bc3 f5ac 97c0 d490 c83c d0f3 95c0
00000220: 6a05 e058 1382 95c0 6d9c d459 7774 95c0
00000230: c94e e8d4 ed6e 95c0 980e 637d 8e21 94c0
00000240: dcff 77cc 408f 93c0 d2bf 6529 7ba3 92c0
00000250: f020 7d2c 54f7 90c0 d5f1 04bf 75c6 90c0
00000260: c619 12dd 59c1 90c0 e6b4 9ed0 6c15 90c0
00000270: c148 680a 970c 90c0 096b dcba c909 90c0
00000280: 3e6f 7742 f7f7 8fc0 bcbe 148f 1ae3 8fc0
00000290: 5820 e340 a863 8ec0 60cc 851b cff7 8dc0
000002a0: 0a07 5167 62d1 8dc0 e1ba c8fb d9ed 8cc0
000002b0: 9f1d f0ad e5e3 8cc0 5683 3796 b5c0 8cc0
000002c0: 0cd7 50b5 8897 8cc0 c720 33a5 6f12 8cc0
000002d0: 1b81 1402 7bd8 8bc0 6531 39c4 e89b 89c0
000002e0: 74b7 da11 839b 89c0 6c61 a0a5 9274 89c0
000002f0: 1a38 73c7 e2e4 88c0 7f2d cdab a611 88c0
00000300: 0d55 97ac 76bd 87c0 11dd dd7c 8ab9 87c0
00000310: 78df 9088 8184 87c0 5dd4 0c26 d3af 85c0
00000320: e234 69eb df98 85c0 0d96 57e3 f968 84c0
00000330: d5fa 9da9 2762 84c0 f19b 8987 0f3d 83c0
00000340: 61ff f160 4195 82c0 c4b2 e3d9 33e5 81c0
00000350: 476a c6e8 96fe 80c0 c6ce 336d c7f4 80c0
00000360: 22ab 7b23 d61a 7fc0 e9d9 140e 17a0 7cc0
00000370: 0b78 6af5 710a 7cc0 9ab7 cac5 779f 7ac0
00000380: d5e0 66ba 11d5 78c0 60ec ed61 79a3 78c0
00000390: e910 5379 2f36 78c0 c471 6593 efd5 75c0
000003a0: 44aa 5900 60c6 74c0 7519 5387 4181 74c0
000003b0: bee3 e8fc 634d 74c0 d2d0 963a a232 73c0
000003c0: 9f39 1a1b b1d9 72c0 8b7d ca5d 7751 72c0
000003d0: 81dd 0ada ad22 6fc0 5272 3495 b047 6ec0
000003e0: c077 ae2f 39d8 6cc0 ec88 f3a7 d0b8 6cc0
000003f0: 3b95 7f10 1d42 6bc0 fbc6 8045 6db6 69c0
00000400: e7de 6ae7 62f2 68c0 1976 ce6e a171 65c0
00000410: 13f5 0553 acfe 63c0 5b9f d4ba f8f9 5fc0
00000420: 48d5 2c57 2204 5fc0 d24a 1128 bd99 5ec0
00000430: 79b9 35e6 3faa 5cc0 b821 381d dc50 4ac0
00000440: e174 53e2 179c 42c0 dfb9 4265 1125 42c0
00000450: b572 4623 4711 40c0 f9c8 1187 13e3 35c0
00000460: 3ef2 90df c129 2bc0 8a4f b5b4 bd1c 0f40
00000470: 02cd 6a2d e9eb 1040 712b 94e4 4063 1f40
00000480: 9b63 37ad 8993 2440 bbd6 20b7 2708 3240
00000490: 90a4 2f5a cf6a 3440 50f4 96d6 9557 3940
000004a0: e174 946a 016d 3f40 f9bc 4a76 adc7 4140
000004b0: 2347 8f9d b7d5 4340 59a3 80cd fdeb 4340
000004c0: 59e0 3799 8197 4540 7219 2b41 d4d5 4540
000004d0: 84c3 b24c 49c8 4a40 a1b5 e2dd 82a2 4b40
000004e0: 666f 2760 6c89 4c40 46a0 c72e 6d90 4d40
000004f0: fce5 2f65 3d22 5040 df85 09f4 ef4c 5040
00000500: 1a09 ba8d 5880 5940 4167 a36c b12a 5d40
00000510: a7d4 4624 433d 6040 3210 548d 70f2 6040
00000520: c2d3 78e2 6577 6140 774c e457 23e6 6140
00000530: 45f8 99e8 8377 6240 f370 dcf5 c588 6440
00000540: d966 fb40 1c9d 6440 6e48 4ab6 7109 6640
00000550: 7ef7 a321 7d34 6840 cd4c 20e5 f2b1 6c40
00000560: 72d9 aaaa b6c6 6f40 3185 6c82 8124 7040
00000570: d299 603a 41b0 7040 876f 1dfd 9211 7240
00000580: 7e87 3073 1a2b 7340 ea52 fb32 fc97 7340
00000590: 66f9 237d 99a1 7340 1f56 01df ca31 7540
000005a0: b870 8941 502c 7640 f135 53ce 3774 7740
000005b0: 7372 5d40 c753 7840 c355 68fc 7459 7840
000005c0: 72fd 8494 1ab0 7840 7630 4e9b 0bb5 7840
000005d0: 1fb0 30f0 4cc6 7840 8024 74b6 32d6 7b40
000005e0: 551e 316f 56e4 7b40 21b7 384e faa0 7e40
000005f0: 7301 0aec 414c 7f40 c590 cbd2 b84c 7f40
00000600: f95a 4690 446f 8040 bd2b dc39 7d7a 8040
00000610: abc5 5920 2802 8140 30cf 0891 3ded 8140
00000620: 2fe4 367b 17d1 8340 1757 4f7c ef0c 8440
00000630: 36cf 8f0f 315f 8440 3baf 6a10 fe9e 8440
00000640: dad8 c50d 10a9 8440 29f8 1976 e1f6 8440
00000650: f626 9982 c292 8540 65b5 b5eb b1a9 8540
00000660: 35e1 4404 a4bd 8540 2285 a544 9f78 8740
00000670: d6b1 aafd 9ed6 8740 137f b775 3c5d 8840
00000680: c730 de9a e16c 8840 e8ea 13bd c9e1 8840
00000690: 1a72 43ea d27c 8940 a0f5 a8a2 f97e 8940
000006a0: 4c4f 35b5 45a0 8940 9fb3 1726 d13a 8a40
000006b0: f223 8869 4905 8c40 0e6e 92ac c967 8c40
000006c0: f474 4779 ac12 8d40 619b dd80 d08b 8d40
000006d0: 8699 4c16 a636 8e40 0afd 4f39 b9b5 8e40
000006e0: a5d6 dde2 cb09 9040 9322 0674 913e 9040
000006f0: 4119 a892 445e 9040 a158 2a4e df75 9040
00000700: 3ea7 b742 4aad 9040 4d6d 906d 50b0 9040
00000710: b0e5 0abb fb2f 9140 568e 9fa7 d746 9140
00000720: 2b30 9382 8d5a 9140 9a8d 39b7 8766 9140
00000730: debd 755c 7e69 9140 983a 1aed 8d79 9140
00000740: f4c2 992a 9682 9140 d7bd 7e9f b58b 9140
00000750: 285b 72d0 b0b1 9140 ee52 58a1 a7e8 9140
00000760: 3106 f52e 592e 9240 d100 8bf9 cb51 9240
00000770: 2ae9 19a8 a767 9240 70b3 f689 08c1 9240
00000780: 7ddf 8800 54e2 9240 d77e df6d 7125 9340
00000790: b717 8bfa 105f 9340 1180 1651 48d0 9340
000007a0: 136c 463a 57f0 9340 c944 a729 733f 9440
000007b0: d799 6a8c e063 9440 ef1a 7be3 4f8f 9440
000007c0: 58f2 01e2 8ea4 9440 1b6a bdb0 79f1 9440
000007d0: ef48 3c41 3417 9540 0d71 022c 1336 9540
000007e0: 8786 307e 7340 9540 cba3 2c45 8d54 9540
000007f0: 8fe9 05e7 6496 9540 962b 34c7 3fa2 9540
-6333.485196119173 -5352.1927865219295 -4689.517214694119 -4640.774029441551 -4257.46324661438 -4182.5668647611965 -4161.431434475365 -4142.443243264382
-3836.1610773299108 -3800.1991482030226 -3776.463077106726 -3727.9116150628165 -3359.807980857448 -3332.587679714461 -3319.7495310465692 -3153.544556476853
-3088.605946025107 -3067.359331256138 -3052.877568061565 -3007.723535715088 -2966.7361547871906 -2956.3978192043573 -2864.224010566848 -2748.689382514663
-2723.2470354216393 -2613.73618489375 -2562.396732568602 -2547.6257061505576 -2453.6660395913245 -2327.4037120045637 -2327.034130055467 -2314.3334683694275
-2298.6634141835343 -2218.2511788867455 -2183.1326755472664 -2162.2754257108422 -2139.85687218609 -2133.7852729388337 -2101.5744021716655 -2071.244190290395
-2065.71341998965 -2035.4859173416312 -2035.1831117527338 -2021.9493964454819 -1922.3125189160503 -1900.0870842910629 -1856.7848088571757 -1841.700692069684
-1805.302894986477 -1791.2936981168089 -1778.1382486724433 -1772.9809107461124 -1767.8020257110236 -1757.2305298103618 -1725.1026824375363 -1722.5990231848202
-1712.306656333803 -1658.5551005943666 -1642.3453843828702 -1594.6291093563739 -1590.3818848594572 -1572.4643732589834 -1570.345217945304 -1561.9562042063142
-1556.6872358998032 -1554.349261505377 -1515.24000303835 -1404.9533568704983 -1376.5188937190346 -1373.116553613708 -1371.7322574899756 -1288.3891501882226
-1251.8132799863733 -1192.8702751062706 -1085.832200961242 -1073.6149864933589 -1072.3377573803168 -1029.3562645719444 -1027.1475006384283 -1026.4470018806771
-1022.9957322436164 -1020.3879682179172 -972.4571550125356 -958.9761267140384 -954.1730486231111 -925.7314372713118 -924.4871481665649 -920.0886654221492
-914.9417520824077 -898.304514312208 -891.0600625612163 -819.4886555164527 -819.4389988982425 -814.5716049699527 -796.6107319833275 -770.2063823728093
-759.6829463789778 -759.1926209767427 -752.5632487600515 -693.9780999185856 -691.1093357295288 -653.1220156519572 -652.2693664877103 -615.6325827360835
-594.6569231897412 -572.6503179348879 -543.8236861706908 -542.5973762557485 -497.6772799330521 -458.00562866349225 -448.65282193746015 -425.9667413633957
-397.3168281572992 -394.2171344083672 -387.38659031341246 -349.37099017740934 -332.3984378340285 -328.07849819622726 -324.83691111538417 -307.16460665619263
-301.6057387375276 -293.09164218042196 -249.0837221348011 -242.2403055214259 -230.7569807441305 -229.77547071042443 -218.06604790609876 -205.70083880569277
-199.57457323907076 -171.55095615696408 -159.9585356823305 -127.90580626262583 -124.06459597948299 -122.40217019737909 -114.66015010115179 -52.63171735039526
-37.2194788844588 -36.28959337003811 -32.13498345317695 -21.887016717760137 -13.581557260936389 3.889033710272945 4.23038168873177 7.8469272342143634
10.288159764300692 18.031856008069308 20.417226444846676 25.342130100111092 31.425802861446645 35.55998114251447 39.669665999374295 39.843682945071755
43.18364253261888 43.67053999523604 53.56473692635248 55.26961873597907 57.07361986089272 59.128331992601076 64.53499726941658 65.20214558534597
102.00540488402876 116.66707912404401 129.9144460090076 135.57623926561934 139.7311870918184 143.1918143710097 147.7348521239493 164.27416508727
164.90969895460037 176.29513086803803 193.64027483010062 229.56090027149767 254.2097981774237 258.2816185225557 267.0159248136016 289.0983859205084
306.693957509582 313.49907205747024 314.09997285892894 339.1120290806011 354.7695937508356 375.2636245012682 389.2361453676487 389.5910610271059
395.00648929547526 395.3153336576719 396.39378375071277 445.3873810326404 446.27110213457973 490.0611097541278 500.76609424503766 500.79512290494705
525.9084783073914 527.3111455155228 544.2695929540108 573.6550617874364 634.1364654816042 641.616936321111 651.8989554629431 659.8740547499395
661.1328387696078 670.8600885418756 690.344975658895 693.2118753620131 695.7050862675884 751.0777676516775 762.8276322684785 779.6545214019446
781.610158668388 796.2235051685393 815.6029858845898 815.8718922805747 820.0340370335412 839.3521234370891 896.6608458171816 908.9734736862026
930.3342156965796 945.4768082917254 966.8310972198822 982.7154413460823 1026.4491076147326 1039.6420441588023 1047.5669657006658 1053.4680716148944
1067.3225201316668 1068.0785429541313 1099.9958306982699 1105.710600369513 1110.638193416419 1113.632534884708 1114.373399581636 1118.3885997865927
1120.6466468835106 1122.9273662379617 1132.4226701610696 1146.163701419889 1163.587093189719 1172.449194118428 1177.9137271927416 1200.2583387896557
1208.5820332895667 1225.360770694844 1239.7665807469582 1268.0706218257585 1276.0851832393134 1295.8624635825856 1304.969285646095 1315.8280162081899
1321.1395340255895 1340.3688382717144 1349.8010301036372 1357.5187225705624 1360.1127860624417 1365.1379591917964 1381.598537533169 1384.5622833396533
