parametric/NF_MNIST/B_parametric200.npy (npy, 4128 bytes, 1 tensors)

array f8 [500]
00000000: 0232 3b59 ad27 a1c0 3fd0 37e4 c510 a0c0
00000010: 46b7 55c8 d0c1 9ec0 8f8f 1496 526c 9dc0
00000020: f3f8 d35f 17b9 9cc0 1773 e82d d8e2 99c0
00000030: 05fd e605 366c 99c0 3f34 8224 604c 99c0
00000040: 7215 50e9 d13a 98c0 8efe d56e b4d6 97c0
00000050: 5137 9195 b4a9 96c0 558b f666 6aa1 94c0
00000060: 6fb9 71ab 4745 93c0 2870 553e b60b 93c0
00000070: 5f42 9f9b bbcc 92c0 2f5c 560a b439 91c0
00000080: b1a9 fa4c e6b4 90c0 3f97 dd7e cd26 8ec0
00000090: c1a8 6b28 6c2e 8dc0 cc3c c297 a1a7 8bc0
000000a0: e1a9 2ae5 6140 8ac0 4de7 94e5 0837 89c0
000000b0: 8047 c5a5 164c 88c0 aaaf 99f2 24af 86c0
000000c0: bad6 cbd7 5792 86c0 dcd3 16e5 ef91 86c0
000000d0: b891 83d2 b665 86c0 92e9 0ec7 da36 86c0
000000e0: 8078 4abd 7054 85c0 828f a2cf 2cd6 84c0
000000f0: ff7a e07f b8c9 84c0 fc31 84b2 921e 84c0
00000100: 0a46 8f77 0816 84c0 1f3d 211c 51a6 83c0
00000110: a49d 228a d65b 83c0 a13a 147f 0cea 81c0
00000120: cb11 c428 529a 80c0 117c cb13 ee7d 80c0
00000130: 75ea 6d69 986c 80c0 d49f 6990 04d8 7fc0
00000140: 436f ccc4 2555 7fc0 47ec 0d8d 34c3 7dc0
00000150: bcfd 0da9 5e84 7dc0 8f91 08b8 57a1 7cc0
00000160: e753 494a cf0d 7cc0 a84b 98a4 e2af 7bc0
00000170: 3dad 2a7e ffef 7ac0 77bf 62ce c5a8 7ac0
00000180: 2f6e 9b70 a19c 7ac0 7537 1d3b 9795 79c0
00000190: d347 ea03 5c52 79c0 b138 6a8c 127d 78c0
000001a0: c6b1 eb37 ee4a 78c0 aff1 2f69 3015 78c0
000001b0: 33dc b8b1 af77 77c0 ae19 e7be c4f1 76c0
000001c0: 9861 6cd2 24d2 76c0 f27e 0e36 7c6f 76c0
000001d0: e497 889e 488a 75c0 4271 f1eb 636c 75c0
000001e0: 34c7 96a1 f7c6 74c0 e7d1 3231 6958 74c0
000001f0: 1606 5058 c252 74c0 6d14 a9fb b1cd 73c0
00000200: 30b5 a65d d2c2 73c0 0635 e81d 30ab 73c0
00000210: b792 6891 7533 73c0 9f50 3783 30d4 72c0
00000220: e67e a2aa ae10 71c0 5cd3 8cab fdf4 70c0
00000230: 19d1 561b 4ea3 70c0 99b1 74df 8184 70c0
00000240: 7332 16e2 32e1 6ec0 e0c3 da62 89f6 69c0
00000250: ffd2 7237 d265 69c0 b37a b59b 59ef 68c0
00000260: 516f 221a baea 68c0 5bc0 6078 a1fa 66c0
00000270: 962c 561e c046 64c0 fe10 5153 a885 63c0
00000280: de6a 3ff6 c308 61c0 79d4 c048 8f99 60c0
00000290: d35d b343 8263 60c0 0e2c cfd5 7c3c 5ec0
000002a0: bb12 76af bf6f 5ac0 9c2b dc37 c377 58c0
000002b0: 9d95 2a3e 4939 55c0 8051 c1b5 ae60 52c0
000002c0: 16e4 0999 7020 52c0 faed 09c1 8bcc 51c0
000002d0: b177 b216 906f 51c0 fcfa 6bad f8aa 50c0
000002e0: 1ba6 3fd7 c047 4bc0 24e5 5bbc 1f89 47c0
000002f0: 2f9f c23a 1cf6 45c0 3b2d db06 fc58 3040
00000300: 189b 940c 2944 3e40 1444 32bf 6874 4d40
00000310: cda7 42b2 0a94 5340 1025 3d3b 20b0 5a40
00000320: b1ce ff4a e523 5d40 a47f 6b8b 7510 5f40
00000330: a56a 037a 3ecd 5f40 ff15 e21e f0ed 5f40
00000340: 1e13 2e27 111c 6040 0eb2 2685 d97c 6040
00000350: 1163 f3cc 50f4 6040 ab64 2f40 7cd1 6140
00000360: b58f 6289 b202 6340 2cc1 8e90 83e8 6440
00000370: 8194 8b25 bf56 6540 e797 2afc 955f 6640
00000380: d574 bdfd ac01 6740 80b2 5638 5762 6740
00000390: 4b70 521d ac90 6840 6100 136f c3ad 6840
000003a0: 7de6 7d99 a83d 6940 ae6f 91ef 494b 6940
000003b0: f88a 9a59 f214 6b40 56f1 ef4f ca4f 6b40
000003c0: 84f9 084b 1dcf 6c40 637c 56c6 9768 6d40
000003d0: fe20 1552 b06f 6d40 09db e0cc d5fd 6e40
000003e0: 9d10 9ff1 686c 6f40 3091 8eb5 d977 6f40
000003f0: a90b 5a1b 7092 7040 a3dc 01a9 539a 7040
00000400: cabf ce08 21e3 7040 feff ba48 2d20 7240
00000410: 023e f9eb 671a 7340 4a49 0a81 e6fc 7440
00000420: 8e66 a612 dd2b 7540 79f2 a368 a2a5 7640
00000430: cc41 dd66 2ecf 7740 4b59 e177 7ce7 7740
00000440: 7f2d 7a07 a30a 7840 a3d5 d76b a43a 7840
00000450: ae46 d4a2 ce5a 7840 71e4 ec4b 61af 7840
00000460: 581a 107a 9a00 7940 f166 26b3 31fc 7940
00000470: 1578 076f a079 7a40 a0dd fc29 6b8b 7a40
00000480: cce3 c5f4 929c 7a40 c62c f8ad bc64 7b40
00000490: c819 4f73 62bf 7b40 36d6 46f3 34d9 7b40
000004a0: 157a b493 a49c 7c40 f6d0 fe31 c521 7e40
000004b0: 2037 e72d 5a8d 7e40 3cc5 b47f 9503 7f40
000004c0: 6b9a 4ad7 7720 7f40 859c c891 7837 7f40
000004d0: cc78 9ee2 6660 7f40 24eb df32 44b4 7f40
000004e0: 0ef2 1732 3acb 7f40 5f29 ed1b eb1c 8140
000004f0: dbc6 3966 8642 8140 e9a2 041b 0448 8140
00000500: d662 a935 6c65 8140 bb7b d83e 0d89 8240
00000510: 80cc 1074 2ac5 8240 dfab ddf9 690f 8340
00000520: fdbe d895 5261 8340 77a6 fdbd b773 8340
00000530: 47bd ba87 fc89 8340 bab3 c1e0 d393 8340
00000540: 2a97 f1c3 07ef 8340 1c18 865b 2a04 8440
00000550: d3a4 7345 2747 8440 184e 622d 1b96 8440
00000560: 087f df63 cdb6 8440 60a0 3e91 1eff 8440
00000570: 671b 60ae 520a 8540 78f5 9d58 b53b 8540
00000580: fbe6 fe13 34b7 8540 0da9 0934 7cbd 8540
00000590: 6be7 dabb 68c4 8540 7a78 204e 7f26 8640
000005a0: bee5 0fe7 8f3d 8640 758f 223b d7d0 8640
000005b0: 4bf9 5a1a 17f0 8640 c4a9 bb6d 6817 8740
000005c0: c2c4 7f09 d9fe 8740 6d79 92c6 9d0d 8840
000005d0: b692 7e6b 9045 8840 1c47 77b3 6c74 8840
000005e0: 0535 b6d3 91bf 8840 8587 4865 60c3 8840
000005f0: d16b ba7e 25e9 8840 8697 cea4 053a 8940
00000600: e031 0d19 103b 8940 8227 5ff5 4282 8940
00000610: 774e cf25 aedf 8940 e67f 652e 88f4 8940
00000620: 33d7 b18a b733 8a40 0251 89e7 4e35 8a40
00000630: fdec 0d8b d74c 8a40 03ba da56 0767 8a40
00000640: 92cd 5fb2 8e68 8a40 caad 1256 c174 8a40
00000650: 151f ed0a b591 8a40 a9eb 0e56 42eb 8a40
00000660: 1f76 eb19 b50b 8b40 b338 e02c 1a13 8b40
00000670: 3a11 1a4b 2019 8b40 c642 aa3d 0e4d 8b40
00000680: 771f 7ffa 0bcb 8b40 9320 d2bc c028 8c40
00000690: 3f20 b12c e455 8c40 b452 60bc 92da 8c40
000006a0: 4d14 3852 400e 8d40 785c d4f1 df8c 8d40
000006b0: 9c51 59d5 8ba6 8d40 b97b 4998 a4aa 8d40
000006c0: 4fcf dd22 2b0d 8e40 e2ef 6c95 4225 8e40
000006d0: 0fb3 1e1c 3927 8e40 1b10 dfb5 444f 8f40
000006e0: 61b3 9ece fc7e 8f40 b601 01cc de98 8f40
000006f0: 9476 18cd 10b5 8f40 095f 374f 160c 9040
00000700: cebb edb9 f018 9040 5d05 f2f3 2822 9040
00000710: d95b de3a a769 9040 9964 2225 ad9d 9040
00000720: 5f7a 2f80 0fb3 9040 7013 0663 62be 9040
00000730: 5ce7 8dfa 08d6 9040 0833 972f 8946 9140
00000740: bb9d cf30 f556 9140 c6c1 28c3 8a63 9140
00000750: c7fb a351 cf80 9140 a8b7 08ca 3088 9140
00000760: 889f 24c6 4eba 9140 99ff bef3 89e9 9140
00000770: e22f 1817 1204 9240 27ae d5bb 5c0f 9240
00000780: 58f7 bf17 a517 9240 8542 2506 1922 9240
00000790: 11b1 7b94 8622 9240 645e b70c fb7a 9240
000007a0: 74d4 42ac f786 9240 eb38 e629 748c 9240
000007b0: 7373 5b09 4891 9240 869f d3c3 1f92 9240
000007c0: 9e0d 504c 6d95 9240 0964 e5bf c397 9240
000007d0: c1e6 4418 eba1 9240 14a4 890a 69cd 9240
000007e0: 94ed d6f9 ccd9 9240 bfa9 4809 8dde 9240
000007f0: 12e3 a6fe c0f7 9240 8778 2826 931a 9340
-2195.838571405272 -2056.386506790324 -1968.4538892167197 -1883.0806506359693 -1838.272826492376 -1656.7111126251455 -1627.052756890481 -1619.0938892692936
-1550.704991580304 -1525.6762040554636 -1450.4263518037808 -1320.353908397917 -1233.3199899453573 -1218.9279721593575 -1203.183210838724 -1102.4258206838383
-1069.2249030271598 -964.8503396331579 -933.8028114710688 -884.9539027380756 -840.0478003819554 -806.8793441422546 -777.5110583698697 -725.8930408484205
-722.2928920674233 -722.2421361716656 -716.7142687109799 -710.8568249859838 -682.5550485437416 -666.7718804073377 -665.2150876557861 -643.821629555488
-642.7541342919587 -628.7896044346597 -619.479755659519 -573.2561017589943 -531.290116817277 -527.7412486932027 -525.5744198405433 -509.50111428508285
-501.3217208848693 -476.2003298324457 -472.27311044183057 -458.0839157423697 -448.86310795444155 -442.99283275118296 -430.999876181322 -426.5482925278988
-425.7894140311718 -409.3494216100001 -405.14746467128606 -391.81702844136004 -388.68315879886757 -385.3243190644088 -375.48039409838674 -367.11053362153586
-365.133989737858 -358.96782498991445 -344.6427293143918 -342.77439493478244 -332.4354568376323 -325.5256816849855 -325.17244750270163 -316.8559528927497
-316.17635884399624 -314.6992472715941 -307.21620312546605 -301.2618438873996 -273.04264319872743 -271.31193118104943 -266.2065690413743 -264.2817072447156
-247.037461322168 -207.70427077033582 -203.18191120554545 -199.47968850560355 -199.33521754003098 -183.832210720985 -162.21095196562663 -156.17679754098202
-136.27392113100262 -132.7987407461367 -131.10965142281074 -120.94511933547639 -105.7460745480593 -97.87129017354022 -84.89509538801799 -73.51066345099207
-72.50687242475428 -71.19602991075217 -69.7431694739196 -66.67142806572878 -54.56057253463606 -47.07128099906029 -43.92273649695414 16.347595623502666
30.266251360207292 58.9094466205062 78.31315285214733 106.75196724864168 116.5608699319953 124.25717435357961 127.20693826993609 127.7177808006163
128.87709387778244 131.90155274923058 135.63486335312385 142.5464173246049 152.0842940259005 167.2660601413894 170.71083333265054 178.9870587188627
184.05236708644102 187.0731469815546 196.52101007558153 197.43010667525508 201.92683100309287 202.35277536778943 216.65458374199056 218.49344632018864
230.472325818566 235.26852719203734 235.49027351500257 247.93234867016898 251.38781052653658 251.74532583089012 265.15236983465235 265.64542484977045
270.19556504022023 290.01105568930495 305.650371526339 335.8062754060562 338.74147286415325 362.35215057412967 380.9488285677769 382.46788776423335
384.6648020527427 387.6651419096981 389.6754482547793 394.9612540486915 400.0377140645046 415.76213374138666 423.6016683856736 424.7136630895202
425.7858779649803 438.29606434768027 443.9615357484695 445.5754273192464 457.7901799249533 482.110643382431 488.83451643293847 496.2239987431856
498.0292580522716 499.4669359051116 502.0251184644992 507.2666500803773 508.70170792916986 547.6147993591547 552.3156246675311 553.0020046579567
556.6778367265022 593.1314675247917 600.6457291901024 609.92674611264 620.1653248723302 622.4647178474833 625.2483057583821 626.4784560330365
637.8787917017228 640.5206823803051 648.8941754374194 658.7632701568682 662.8502881489412 671.8899254696553 673.2903716572154 679.4635479298149
694.9004287637939 695.6856461291042 696.551139555156 708.8121607338683 711.6952649347293 730.1050932598142 734.0112807376221 738.9259905492004
767.8559751493378 769.702038902598 776.6955175293467 782.5530766790939 791.9462045893603 792.4220681825979 797.1433081211236 807.2527557506553
807.3828602820249 816.28269457187 827.9600330539532 830.5664947442681 838.4646200078772 838.6635275581214 841.6052456939648 844.8785836303726
845.0696761593447 846.5944024524008 850.2133997464285 861.4073907056492 865.46342834429 866.3877809064201 867.1407682453639 873.6319535543087
889.3808488780477 901.0941101471129 906.7364133680311 923.3216483617057 929.7814068204112 945.6093479719848 948.8182780244856 949.3303685894854
961.6460625962153 964.6575115690905 964.9028856657404 1001.9085500170507 1007.8734409712307 1011.1087875441215 1014.6332036887347 1027.0217865611796
1030.235084261501 1032.5399930778287 1050.4133105033454 1063.4190869687939 1068.7651374262275 1071.5960808705677 1077.508768288847 1105.6339706063172
1109.7394440116902 1112.8855100982923 1120.2024598715232 1122.0476456987471 1134.5769277307863 1146.384718880034 1153.0176662234521 1155.840560282473
1157.9112234110562 1160.5244375058985 1160.6314257933448 1182.745165696274 1185.7418680612727 1187.113441083168 1188.320348195001 1188.5310204568973
1189.3567364223777 1189.9411617128665 1192.479584766945 1203.3525792604823 1206.4501718122965 1207.6377307275395 1213.9384714199155 1222.6437002490582
