parametric/RBM/B2_parametric1000.npy (npy, 84128 bytes, 1 tensors)

array (column-major) f8 [21, 500]
0	0x3e4ded43fe0f8605	1.3935760935797035e-08
1	0x3e5ded43fe0fbeff	2.787152187164233e-08
2	0x3e6ded43fe10a2bf	5.5743043743670485e-08
3	0x3e7ded43fe1431d9	1.114860874904279e-07
4	0x3e8ded43fe226e45	2.2297217500555137e-07
5	0x3e9ded43fe5b5fde	4.45944350208666e-07
6	0x3eaded43ff3f2645	8.918887019978387e-07
7	0x3ebded4402ce3fb2	1.7837774166397204e-06
8	0x3ecded44110aa2ef	3.5675549344315177e-06
9	0x3edded4449fc0881	7.1351106780711115e-06
10	0x3eeded452dbf29cb	1.427022782953405e-05
11	0x3efded48bca45eee	2.8540507437473565e-05
12	0x3f0ded56f5c47d46	5.708142882298677e-05
13	0x3f1ded8fb30d1583	0.00011416616031308638
14	0x3f2dee703984dde9	0.00022835845880718402
15	0x3f3df1cc92bcee81	0.00045691723311212107
16	0x3f4dfd2310097b72	0.000915186043197609
17	0x3f5e134c8234518b	0.0018356558946993364
18	0x3f6dd999ce68c7ac	0.003643799212363205
19	0x3f7b95554467a6ad	0.006734211993242018
20	0x3f854be75f247b1f	0.010398681250590123
21	0xbddb17c4d0f03e8d	-9.856320294187247e-11
22	0xbdeb17c4d141d594	-1.971264060219637e-10
23	0xbdfb17c4d28870a8	-3.942528131505108e-10
24	0xbe0b17c4d7a2b275	-7.885056351525635e-10
25	0xbe1b17c4ec0bc4b0	-1.5770113411180466e-09
26	0xbe2b17c53db01f75	-3.154023248741339e-09
27	0xbe3b17c684417546	-6.308051029520141e-09
28	0xbe4b17cb9e86f4b1	-1.2616138315356995e-08
29	0xbe5b17e0079df517	-2.523256668146684e-08
30	0xbe6b1831ac0ae62b	-5.0467453776301084e-08
31	0xbe7b19783ece2c6d	-1.0095347109503669e-07
32	0xbe8b1e929ad1b07b	-2.0205545806244413e-07
33	0xbe9b32fd19eb851f	-4.052992838410319e-07
34	0xbeab84b7f01c9ff6	-8.201131722384073e-07
35	0xbebcccab3ac61151	-1.7165832374164642e-06
36	0xbed0fdceb9e47807	-4.0510739423276685e-06
37	0xbeebb0a9ebcfafbd	-1.3203665156745368e-05
38	0xbf11b7d6960cc520	-6.758925657092798e-05
39	0xbf38ae7432953f8e	-0.00037660920005055324
40	0xbf57232c8bc4926e	-0.001412194730684348
41	0xbf6ab1533b04279c	-0.003258383330948923
42	0x3df44c5b02a3dedf	2.9537861274974526e-10
43	0x3e044c5b02f7f0f4	5.907572260691753e-10
44	0x3e144c5b04483a9b	1.1815144566958988e-09
45	0x3e244c5b09896052	2.363028949852089e-09
46	0x3e344c5b1e8df571	4.72605819138614e-09
47	0x3e444c5b72a048bc	9.452118716227471e-09
48	0x3e544c5cc2e99b67	1.890425610010113e-08
49	0x3e644c62040ec6b8	3.7808661541318645e-08
50	0x3e744c7708a19a91	7.561851780996437e-08
51	0x3e844ccb1acf2e89	1.5124659338696836e-07
52	0x3e944e1b61a9d4dd	3.0256964725996863e-07
53	0x3ea4535c5f5aedae	6.057509256066659e-07
54	0x3eb4685e7ab82ac4	1.2163932109366817e-06
55	0x3ec4bc493df12f25	2.4718633393812128e-06
56	0x3ed60a1caf88c149	5.254626323878132e-06
57	0x3eeb24add85edb95	1.2942923387144505e-05
58	0x3f06f6f235ffcf28	4.38015620146933e-05
59	0x3f29a07879bd8e8e	0.00019551726006305055
60	0x3f4a5c299e99ba52	0.0008044436664940791
61	0x3f63fda343c0058f	0.0024402798426314608
62	0x3f7508f4e47d5e95	0.0051354948153271756
63	0xbe5a8e0a6adf4f91	-2.473112797176146e-08
64	0xbe6a8e0a6adeb468	-4.946225594326007e-08
65	0xbe7a8e0a6adc47bd	-9.892451188441723e-08
66	0xbe8a8e0a6ad29516	-1.9784902375201135e-07
67	0xbe9a8e0a6aabca61	-3.9569804736943653e-07
68	0xbeaa8e0a6a109fa5	-7.913960936621862e-07
69	0xbeba8e0a67a3f4aa	-1.582792178710875e-06
70	0xbeca8e0a5df148bd	-3.1655842885137712e-06
71	0xbeda8e0a37269746	-6.331168025763329e-06
72	0xbeea8e099bfbb728	-1.2662331641401565e-05
73	0xbefa8e072f4e9203	-2.53246280014375e-05
74	0xbf0a8dfd7c7fb53c	-5.064897374027841e-05
75	0xbf1a8dd6afa03530	-0.00010129568900670428
76	0xbf2a8d3b61ff6e6c	-0.00020257329833738306
77	0xbf3a8acc90bbae05	-0.0004050015856893188
78	0xbf4a80f965941ada	-0.0008088319547433179
79	0xbf5a588e0b5e7173	-0.0016080271866264178
80	0xbf69b283af40e0cd	-0.0031368801083112353
81	0xbf7787a7d3cb2608	-0.005744605613196459
82	0xbf8322469cbdcad7	-0.009342719705931852
83	0xbf8af496581e6647	-0.013161825718088894
84	0xbe5248835960a1c0	-1.7027607400603057e-08
85	0xbe624883595f3fc6	-3.4055214800606454e-08
86	0xbe7248835959b802	-6.811042959641611e-08
87	0xbe824883594398eb	-1.3622085915445763e-07
88	0xbe92488358eb1c98	-2.72441718001919e-07
89	0xbea2488357892b3d	-5.448834335478665e-07
90	0xbeb24883520165f0	-1.0897668474479676e-06
91	0xbec248833be250e1	-2.1795335377138273e-06
92	0xbed24882e366006c	-4.359065817971611e-06
93	0xbee248818174f997	-8.718121576320455e-06
94	0xbef2487bf9b4905f	-1.7436162676479394e-05
95	0xbf024865daee0a2f	-3.487168156992117e-05
96	0xbf12480d6385a4bd	-6.973821371549206e-05
97	0xbf2246abc0f1366e	-0.00013943525888964213
98	0xbf324128e3f29681	-0.0002785420255782892
99	0xbf422b5768d4ebfc	-0.0005544831089204778
100	0xbf51d77d3f283b68	-0.0010889742958430596
101	0xbf60b48139e82293	-0.0020391963910280724
102	0xbf6b556b2754008f	-0.003336629185128066
103	0xbf70d8e508bca64c	-0.004113096870960908
104	0xbf6aa39d2a58959d	-0.0032518453251834793
105	0xbe41a31a69b36000	-8.212924831904156e-09
106	0xbe51a31a69b20543	-1.6425849663514613e-08
107	0xbe61a31a69ac9a50	-3.285169932467964e-08
108	0xbe71a31a6996ee8b	-6.570339863056271e-08
109	0xbe81a31a69403f82	-1.3140679711075312e-07
110	0xbe91a31a67e58358	-2.628135930185275e-07
111	0xbea1a31a627a9291	-5.256271764132217e-07
112	0xbeb1a31a4ccecfb5	-1.0512542758357912e-06
113	0xbec1a319f61fc763	-2.1025079357467018e-06
114	0xbed1a3189b63d780	-4.20501094410507e-06
115	0xbee1a31330772e69	-8.409982469446274e-06
116	0xbef1a2fd84f5f364	-1.6819649599753182e-05
117	0xbf01a2a6da076dec	-3.363677683739991e-05
118	0xbf11a14c5fa89c4c	-6.72533860003193e-05
119	0xbf219be5891d328a	-0.00013434578846229325
120	0xbf31867ab17238fc	-0.0002674150031872905
121	0xbf4133b03c57ecf6	-0.0005249605680427694
122	0xbf500f213fa962e1	-0.000980169743931274
123	0xbf59dd45343f1c1b	-0.0015786338635608358
124	0xbf5ed87248250024	-0.0018826595338197272
125	0xbf58babadab115e8	-0.0015093636273076864
126	0xbe4d61c88c9a525f	-1.3682044292052092e-08
127	0xbe5d61c88c97b6c5	-2.7364088583538703e-08
128	0xbe6d61c88c8d4896	-5.472817716255394e-08
129	0xbe7d61c88c638fa0	-1.0945635428891938e-07
130	0xbe8d61c88bbcabaa	-2.1891270828832993e-07
131	0xbe9d61c889211c07	-4.378254142605921e-07
132	0xbead61c87eb2dd75	-8.756508099926415e-07
133	0xbebd61c854f9e430	-1.7513014717569963e-06
134	0xbecd61c7ae160c36	-3.5026017576891194e-06
135	0xbedd61c512878196	-7.005194028825501e-06
136	0xbeed61baa45aa9dc	-1.4010312166708285e-05
137	0xbefd6190ec7c716d	-2.8020017253203704e-05
138	0xbf0d60ea1a5494ba	-5.603517937861334e-05
139	0xbf1d5e4fa66d0b82	-0.00011203156610144034
140	0xbf2d53f30c5e0da2	-0.000223754328711673
141	0xbf3d2b4eaa401fca	-0.00044508619816996094
142	0xbf4c946cfbf181b8	-0.0008721859120548936
143	0xbf5abf9a88234832	-0.0016325959300513945
144	0xbf66f37d127a44bf	-0.002801651269529331
145	0xbf72351d2c9d63e8	-0.004445184671419057
146	0xbf7ae4bdfa793803	-0.006565801718876332
147	0x3e0d22c1974a1446	8.479624073905384e-10
148	0x3e1d22c197393ed3	1.6959248145529365e-09
149	0x3e2d22c196f5e378	3.3918496272801617e-09
150	0x3e3d22c195e878e5	6.783699239955236e-09
151	0x3e4d22c191b2cf71	1.3567398363070132e-08
152	0x3e5d22c180dc2a52	2.713479579141813e-08
153	0x3e6d22c13d81960b	5.4269584105059523e-08
154	0x3e7d22c030174ab8	1.0853910838792477e-07
155	0x3e8d22bbfa6e78b8	2.1707773819891397e-07
156	0x3e9d22ab23d0d25d	4.341516478018813e-07
157	0x3ead2267c9b47787	8.682726674623866e-07
158	0x3ebd215a66e6bafe	1.7363003298288887e-06
159	0x3ecd1d2535df5b29	3.470641259699539e-06
160	0x3edd0c5611e9ab77	6.925627785573917e-06
161	0x3eecc972d1c736b7	1.3726667526105377e-05
162	0x3efbc34f9a9e8a49	2.647679654156136e-05
163	0x3f07f7e3b2f9d1d0	4.571593887884066e-05
164	0x3f082941f45522b2	4.608376051834974e-05
165	0xbf1cedbade7f0177	-0.00011035397585513149
166	0xbf4751125de9bec0	-0.0007115688020586583
167	0xbf5937e30a410921	-0.001539203375629024
168	0x3e30a6a06740572b	3.876836286044878e-09
169	0x3e40a6a0673f6381	7.75367257198656e-09
170	0x3e50a6a0673b94e8	1.5507345143147604e-08
171	0x3e60a6a0672c5ad2	3.1014690279691593e-08
172	0x3e70a6a066ef7252	6.202938050655374e-08
173	0x3e80a6a065fbd082	1.240587605904732e-07
174	0x3e90a6a0622d48d6	2.4811751779986636e-07
175	0x3ea0a6a052f329f1	4.962350085510869e-07
176	0x3eb0a6a0160aae2d	9.92469800712997e-07
177	0x3ec0a69f2268b77b	1.9849378703117515e-06
178	0x3ed0a69b53e06181	3.969861891682851e-06
179	0x3ee0a68c19b7568c	7.939612990985675e-06
180	0x3ef0a64f3098984c	1.58783396157147e-05
181	0x3f00a55b849a7bce	3.174958744733108e-05
182	0x3f10a18c65cdf7e0	6.344241542241514e-05
183	0x3f20924b344b3389	0.00012643020649818714
184	0x3f30556d5542da50	0.0002492324758906249
185	0x3f3ee33d8de1e23a	0.0004713082579495296
186	0x3f49e5ebb27f0f9c	0.0007903481355175826
187	0x3f515434dcb19ab9	0.001057674048547659
188	0x3f529adf46647d0f	0.001135557214702324
189	0x3e322874f4136ce9	4.227746875860591e-09
190	0x3e422874f411dcee	8.455493751551784e-09
191	0x3e522874f40b9ca5	1.6910987501748074e-08
192	0x3e622874f3f29c0c	3.382197499265311e-08
193	0x3e722874f38e9936	6.764394989856044e-08
194	0x3e822874f1fe8df5	1.3528789910315524e-07
195	0x3e922874ebbe6110	2.705757926545869e-07
196	0x3ea22874d2bdae38	5.411515408954053e-07
197	0x3eb228746ebaf10d	1.0823027264814323e-06
198	0x3ec22872deb0da5b	2.164602610511905e-06
199	0x3ed2286c9e966027	4.3291824821864774e-06
200	0x3ee228539f0a78de	8.658183078321906e-06
201	0x3ef227efaeb8fb4c	1.731491185652115e-05
202	0x3f022660cad4a6e6	3.461821448020961e-05
203	0x3f122032f1931869	6.91443532502015e-05
204	0x3f22084f450472fa	0.00013757674833749634
205	0x3f31b44e70ccae50	0.0002701465135028546
206	0x3f40d9056a7251ff	0.0005141521877641274
207	0x3f4f3c7439302c22	0.000953251599982056
208	0x3f5d35e138e8ce9c	0.001782865470556872
209	0x3f6ab41650f7afd2	0.003259700380786137
210	0x3e5725bc20aac3d9	2.155769788609046e-08
211	0x3e6725bc20a8c3ed	4.311539577131369e-08
212	0x3e7725bc20a0c42c	8.623079153568932e-08
213	0x3e8725bc2080c54b	1.724615830158751e-07
214	0x3e9725bc2000c9bb	3.449231655877211e-07
215	0x3ea725bc1e00db5d	6.898463276232065e-07
216	0x3eb725bc160121f4	1.3796926268285302e-06
217	0x3ec725bbf6023cee	2.7593850263140653e-06
218	0x3ed725bb7606b18f	5.5187682338860615e-06
219	0x3ee725b976191001	1.1037521917896255e-05
220	0x3ef725b1766b4970	2.2074927438728157e-05
221	0x3f072591784025c0	4.414892376309763e-05
222	0x3f17251188524da5	8.829040059970277e-05
223	0x3f2723125459e1fb	0.0001765212893365535
224	0x3f371b1e3557847b	0.000352568507279889
225	0x3f46fbd610794387	0.0007014079319081914
226	0x3f568699b9193e2d	0.0013748646928383277
227	0x3f65116dd127a019	0.0025717873443120817
228	0x3f71f055a2db290b	0.004379591480480958
229	0x3f7bde582a9b019a	0.006803841018779977
230	0x3f83f42669089fa7	0.009743022995351526
231	0x3e41af4dbd228436	8.2351173973047e-09
232	0x3e51af4dbd20ede9	1.647023479426525e-08
233	0x3e61af4dbd1a9475	3.2940469585776874e-08
234	0x3e71af4dbd012ea9	6.58809391495248e-08
235	0x3e81af4dbc9b977d	1.3176187812281816e-07
236	0x3e91af4dbb053af8	2.63523754835787e-07
237	0x3ea1af4db4abc8d9	5.270474983927781e-07
238	0x3eb1af4d9b460145	1.0540949065552385e-06
239	0x3ec1af4d35aef163	2.1081890912695e-06
240	0x3ed1af4b9f539779	4.216372407860974e-06
241	0x3ee1af4545f48b1b	8.432698619891641e-06
242	0x3ef1af2be15dff0c	1.6865027724132515e-05
243	0x3f01aec65d5a85a6	3.372710095318346e-05
244	0x3f11ad3131d0f093	6.743061790443127e-05
245	0x3f21a6ea932fecd2	0.00013467420066590755
246	0x3f318ea3d59e8a80	0.00026790141930114336
247	0x3f41383193657571	0.000525497633855272
248	0x3f503a2009309060	0.000990420613342223
249	0x3f5bdc53b599956e	0.0017004792665827567
250	0x3f635d219418816c	0.002363744338041032
251	0x3f61128bd3d06f52	0.0020840388301745305
252	0xbe22d9dfd9daeac3	-2.194553607276111e-09
253	0xbe32d9dfd9d599a4	-4.389107214263993e-09
254	0xbe42d9dfd9c0556f	-8.778214426222275e-09
255	0xbe52d9dfd96b449a	-1.7556428833998856e-08
